<?xml version="1.0"?>
<net name="torch-jit-export" version="11">
	<layers>
		<layer id="2" name="input_ids" type="Parameter" version="opset1">
			<data shape="1,384" element_type="i64" />
			<rt_info>
				<attribute name="old_api_map_element_type" version="0" value="i32" />
			</rt_info>
			<output>
				<port id="0" precision="I64" names="input_ids">
					<dim>1</dim>
					<dim>384</dim>
					<rt_info>
						<attribute name="layout" version="0" layout="[N,C]" />
					</rt_info>
				</port>
			</output>
		</layer>
		<layer id="1" name="attention_mask" type="Parameter" version="opset1">
			<data shape="1,384" element_type="i64" />
			<rt_info>
				<attribute name="old_api_map_element_type" version="0" value="i32" />
			</rt_info>
			<output>
				<port id="0" precision="I64" names="attention_mask">
					<dim>1</dim>
					<dim>384</dim>
					<rt_info>
						<attribute name="layout" version="0" layout="[N,C]" />
					</rt_info>
				</port>
			</output>
		</layer>
		<layer id="0" name="token_type_ids" type="Parameter" version="opset1">
			<data shape="1,384" element_type="i64" />
			<rt_info>
				<attribute name="old_api_map_element_type" version="0" value="i32" />
			</rt_info>
			<output>
				<port id="0" precision="I64" names="token_type_ids">
					<dim>1</dim>
					<dim>384</dim>
					<rt_info>
						<attribute name="layout" version="0" layout="[N,C]" />
					</rt_info>
				</port>
			</output>
		</layer>
		<layer id="3" name="bert.embeddings.word_embeddings.weight_compressed" type="Const" version="opset1">
			<data element_type="f16" shape="30522, 1024" offset="0" size="62509056" />
			<output>
				<port id="0" precision="FP16">
					<dim>30522</dim>
					<dim>1024</dim>
				</port>
			</output>
		</layer>
		<layer id="4" name="bert.embeddings.word_embeddings.weight" type="Convert" version="opset1">
			<data destination_type="f32" />
			<rt_info>
				<attribute name="decompression" version="0" />
			</rt_info>
			<input>
				<port id="0" precision="FP16">
					<dim>30522</dim>
					<dim>1024</dim>
				</port>
			</input>
			<output>
				<port id="1" precision="FP32" names="bert.embeddings.word_embeddings.weight">
					<dim>30522</dim>
					<dim>1024</dim>
				</port>
			</output>
		</layer>
		<layer id="5" name="Constant_423" type="Const" version="opset1">
			<data element_type="i64" shape="" offset="62509056" size="8" />
			<output>
				<port id="0" precision="I64" />
			</output>
		</layer>
		<layer id="6" name="414" type="Gather" version="opset8">
			<data batch_dims="0" />
			<input>
				<port id="0" precision="FP32">
					<dim>30522</dim>
					<dim>1024</dim>
				</port>
				<port id="1" precision="I64">
					<dim>1</dim>
					<dim>384</dim>
				</port>
				<port id="2" precision="I64" />
			</input>
			<output>
				<port id="3" precision="FP32" names="414">
					<dim>1</dim>
					<dim>384</dim>
					<dim>1024</dim>
				</port>
			</output>
		</layer>
		<layer id="7" name="bert.embeddings.position_embeddings.weight_compressed" type="Const" version="opset1">
			<data element_type="f16" shape="512, 1024" offset="62509064" size="1048576" />
			<output>
				<port id="0" precision="FP16">
					<dim>512</dim>
					<dim>1024</dim>
				</port>
			</output>
		</layer>
		<layer id="8" name="bert.embeddings.position_embeddings.weight" type="Convert" version="opset1">
			<data destination_type="f32" />
			<rt_info>
				<attribute name="decompression" version="0" />
			</rt_info>
			<input>
				<port id="0" precision="FP16">
					<dim>512</dim>
					<dim>1024</dim>
				</port>
			</input>
			<output>
				<port id="1" precision="FP32" names="bert.embeddings.position_embeddings.weight">
					<dim>512</dim>
					<dim>1024</dim>
				</port>
			</output>
		</layer>
		<layer id="9" name="Constant_6529" type="Const" version="opset1">
			<data element_type="i64" shape="" offset="62509056" size="8" />
			<output>
				<port id="0" precision="I64" />
			</output>
		</layer>
		<layer id="10" name="407" type="ShapeOf" version="opset3">
			<data output_type="i64" />
			<input>
				<port id="0" precision="I64">
					<dim>1</dim>
					<dim>384</dim>
				</port>
			</input>
			<output>
				<port id="1" precision="I64" names="404,407,412">
					<dim>2</dim>
				</port>
			</output>
		</layer>
		<layer id="11" name="Constant_12764" type="Const" version="opset1">
			<data element_type="i64" shape="1" offset="63557640" size="8" />
			<output>
				<port id="0" precision="I64">
					<dim>1</dim>
				</port>
			</output>
		</layer>
		<layer id="12" name="Constant_412" type="Const" version="opset1">
			<data element_type="i64" shape="" offset="62509056" size="8" />
			<output>
				<port id="0" precision="I64" />
			</output>
		</layer>
		<layer id="13" name="408" type="Gather" version="opset8">
			<data batch_dims="0" />
			<input>
				<port id="0" precision="I64">
					<dim>2</dim>
				</port>
				<port id="1" precision="I64">
					<dim>1</dim>
				</port>
				<port id="2" precision="I64" />
			</input>
			<output>
				<port id="3" precision="I64" names="411">
					<dim>1</dim>
				</port>
			</output>
		</layer>
		<layer id="14" name="Constant_10758" type="Const" version="opset1">
			<data element_type="i64" shape="1" offset="62509056" size="8" />
			<output>
				<port id="0" precision="I64">
					<dim>1</dim>
				</port>
			</output>
		</layer>
		<layer id="15" name="Gather_6526" type="Squeeze" version="opset1">
			<input>
				<port id="0" precision="I64">
					<dim>1</dim>
				</port>
				<port id="1" precision="I64">
					<dim>1</dim>
				</port>
			</input>
			<output>
				<port id="2" precision="I64" />
			</output>
		</layer>
		<layer id="16" name="Constant_6527" type="Const" version="opset1">
			<data element_type="i64" shape="" offset="63557640" size="8" />
			<output>
				<port id="0" precision="I64" />
			</output>
		</layer>
		<layer id="17" name="Equal_6528" type="Equal" version="opset1">
			<data auto_broadcast="numpy" />
			<input>
				<port id="0" precision="I64" />
				<port id="1" precision="I64" />
			</input>
			<output>
				<port id="2" precision="BOOL" />
			</output>
		</layer>
		<layer id="18" name="Constant_6530" type="Const" version="opset1">
			<data element_type="i64" shape="" offset="63557648" size="8" />
			<output>
				<port id="0" precision="I64" />
			</output>
		</layer>
		<layer id="19" name="Select_6532" type="Select" version="opset1">
			<data auto_broadcast="numpy" />
			<input>
				<port id="0" precision="BOOL" />
				<port id="1" precision="I64" />
				<port id="2" precision="I64" />
			</input>
			<output>
				<port id="3" precision="I64" />
			</output>
		</layer>
		<layer id="20" name="Constant_6533" type="Const" version="opset1">
			<data element_type="i64" shape="" offset="63557640" size="8" />
			<output>
				<port id="0" precision="I64" />
			</output>
		</layer>
		<layer id="21" name="Range_6534" type="Range" version="opset4">
			<data output_type="i64" />
			<input>
				<port id="0" precision="I64" />
				<port id="1" precision="I64" />
				<port id="2" precision="I64" />
			</input>
			<output>
				<port id="3" precision="I64">
					<dim>384</dim>
				</port>
			</output>
		</layer>
		<layer id="22" name="Constant_6565" type="Const" version="opset1">
			<data element_type="i64" shape="1" offset="62509056" size="8" />
			<output>
				<port id="0" precision="I64">
					<dim>1</dim>
				</port>
			</output>
		</layer>
		<layer id="23" name="Unsqueeze_6566" type="Unsqueeze" version="opset1">
			<input>
				<port id="0" precision="I64">
					<dim>384</dim>
				</port>
				<port id="1" precision="I64">
					<dim>1</dim>
				</port>
			</input>
			<output>
				<port id="2" precision="I64">
					<dim>1</dim>
					<dim>384</dim>
				</port>
			</output>
		</layer>
		<layer id="24" name="413" type="Broadcast" version="opset3">
			<data mode="bidirectional" />
			<input>
				<port id="0" precision="I64">
					<dim>1</dim>
					<dim>384</dim>
				</port>
				<port id="1" precision="I64">
					<dim>2</dim>
				</port>
			</input>
			<output>
				<port id="2" precision="I64" names="413">
					<dim>1</dim>
					<dim>384</dim>
				</port>
			</output>
		</layer>
		<layer id="25" name="Constant_425" type="Const" version="opset1">
			<data element_type="i64" shape="" offset="62509056" size="8" />
			<output>
				<port id="0" precision="I64" />
			</output>
		</layer>
		<layer id="26" name="415" type="Gather" version="opset8">
			<data batch_dims="0" />
			<input>
				<port id="0" precision="FP32">
					<dim>512</dim>
					<dim>1024</dim>
				</port>
				<port id="1" precision="I64">
					<dim>1</dim>
					<dim>384</dim>
				</port>
				<port id="2" precision="I64" />
			</input>
			<output>
				<port id="3" precision="FP32" names="415">
					<dim>1</dim>
					<dim>384</dim>
					<dim>1024</dim>
				</port>
			</output>
		</layer>
		<layer id="27" name="417" type="Add" version="opset1">
			<data auto_broadcast="numpy" />
			<input>
				<port id="0" precision="FP32">
					<dim>1</dim>
					<dim>384</dim>
					<dim>1024</dim>
				</port>
				<port id="1" precision="FP32">
					<dim>1</dim>
					<dim>384</dim>
					<dim>1024</dim>
				</port>
			</input>
			<output>
				<port id="2" precision="FP32" names="417">
					<dim>1</dim>
					<dim>384</dim>
					<dim>1024</dim>
				</port>
			</output>
		</layer>
		<layer id="28" name="bert.embeddings.token_type_embeddings.weight_compressed" type="Const" version="opset1">
			<data element_type="f16" shape="2, 1024" offset="63557656" size="4096" />
			<output>
				<port id="0" precision="FP16">
					<dim>2</dim>
					<dim>1024</dim>
				</port>
			</output>
		</layer>
		<layer id="29" name="bert.embeddings.token_type_embeddings.weight" type="Convert" version="opset1">
			<data destination_type="f32" />
			<rt_info>
				<attribute name="decompression" version="0" />
			</rt_info>
			<input>
				<port id="0" precision="FP16">
					<dim>2</dim>
					<dim>1024</dim>
				</port>
			</input>
			<output>
				<port id="1" precision="FP32" names="bert.embeddings.token_type_embeddings.weight">
					<dim>2</dim>
					<dim>1024</dim>
				</port>
			</output>
		</layer>
		<layer id="30" name="Constant_427" type="Const" version="opset1">
			<data element_type="i64" shape="" offset="62509056" size="8" />
			<output>
				<port id="0" precision="I64" />
			</output>
		</layer>
		<layer id="31" name="416" type="Gather" version="opset8">
			<data batch_dims="0" />
			<input>
				<port id="0" precision="FP32">
					<dim>2</dim>
					<dim>1024</dim>
				</port>
				<port id="1" precision="I64">
					<dim>1</dim>
					<dim>384</dim>
				</port>
				<port id="2" precision="I64" />
			</input>
			<output>
				<port id="3" precision="FP32" names="416">
					<dim>1</dim>
					<dim>384</dim>
					<dim>1024</dim>
				</port>
			</output>
		</layer>
		<layer id="32" name="418" type="Add" version="opset1">
			<data auto_broadcast="numpy" />
			<input>
				<port id="0" precision="FP32">
					<dim>1</dim>
					<dim>384</dim>
					<dim>1024</dim>
				</port>
				<port id="1" precision="FP32">
					<dim>1</dim>
					<dim>384</dim>
					<dim>1024</dim>
				</port>
			</input>
			<output>
				<port id="2" precision="FP32" names="418">
					<dim>1</dim>
					<dim>384</dim>
					<dim>1024</dim>
				</port>
			</output>
		</layer>
		<layer id="33" name="Constant_431" type="Const" version="opset1">
			<data element_type="i64" shape="1" offset="63561752" size="8" />
			<output>
				<port id="0" precision="I64">
					<dim>1</dim>
				</port>
			</output>
		</layer>
		<layer id="34" name="427" type="MVN" version="opset6">
			<data eps="9.999999960041972e-13" normalize_variance="true" eps_mode="INSIDE_SQRT" />
			<input>
				<port id="0" precision="FP32">
					<dim>1</dim>
					<dim>384</dim>
					<dim>1024</dim>
				</port>
				<port id="1" precision="I64">
					<dim>1</dim>
				</port>
			</input>
			<output>
				<port id="2" precision="FP32" names="427">
					<dim>1</dim>
					<dim>384</dim>
					<dim>1024</dim>
				</port>
			</output>
		</layer>
		<layer id="35" name="Constant_17140_compressed" type="Const" version="opset1">
			<data element_type="f16" shape="1, 1, 1024" offset="63561760" size="2048" />
			<output>
				<port id="0" precision="FP16">
					<dim>1</dim>
					<dim>1</dim>
					<dim>1024</dim>
				</port>
			</output>
		</layer>
		<layer id="36" name="Constant_17140" type="Convert" version="opset1">
			<data destination_type="f32" />
			<rt_info>
				<attribute name="decompression" version="0" />
			</rt_info>
			<input>
				<port id="0" precision="FP16">
					<dim>1</dim>
					<dim>1</dim>
					<dim>1024</dim>
				</port>
			</input>
			<output>
				<port id="1" precision="FP32">
					<dim>1</dim>
					<dim>1</dim>
					<dim>1024</dim>
				</port>
			</output>
		</layer>
		<layer id="37" name="428" type="Multiply" version="opset1">
			<data auto_broadcast="numpy" />
			<input>
				<port id="0" precision="FP32">
					<dim>1</dim>
					<dim>384</dim>
					<dim>1024</dim>
				</port>
				<port id="1" precision="FP32">
					<dim>1</dim>
					<dim>1</dim>
					<dim>1024</dim>
				</port>
			</input>
			<output>
				<port id="2" precision="FP32" names="428">
					<dim>1</dim>
					<dim>384</dim>
					<dim>1024</dim>
				</port>
			</output>
		</layer>
		<layer id="38" name="Constant_17141_compressed" type="Const" version="opset1">
			<data element_type="f16" shape="1, 1, 1024" offset="63563808" size="2048" />
			<output>
				<port id="0" precision="FP16">
					<dim>1</dim>
					<dim>1</dim>
					<dim>1024</dim>
				</port>
			</output>
		</layer>
		<layer id="39" name="Constant_17141" type="Convert" version="opset1">
			<data destination_type="f32" />
			<rt_info>
				<attribute name="decompression" version="0" />
			</rt_info>
			<input>
				<port id="0" precision="FP16">
					<dim>1</dim>
					<dim>1</dim>
					<dim>1024</dim>
				</port>
			</input>
			<output>
				<port id="1" precision="FP32">
					<dim>1</dim>
					<dim>1</dim>
					<dim>1024</dim>
				</port>
			</output>
		</layer>
		<layer id="40" name="429" type="Add" version="opset1">
			<data auto_broadcast="numpy" />
			<input>
				<port id="0" precision="FP32">
					<dim>1</dim>
					<dim>384</dim>
					<dim>1024</dim>
				</port>
				<port id="1" precision="FP32">
					<dim>1</dim>
					<dim>1</dim>
					<dim>1024</dim>
				</port>
			</input>
			<output>
				<port id="2" precision="FP32" names="429">
					<dim>1</dim>
					<dim>384</dim>
					<dim>1024</dim>
				</port>
			</output>
		</layer>
		<layer id="41" name="bert.encoder.layer.0.attention.self.query.weight_compressed" type="Const" version="opset1">
			<data element_type="f16" shape="1024, 1024" offset="63565856" size="2097152" />
			<output>
				<port id="0" precision="FP16">
					<dim>1024</dim>
					<dim>1024</dim>
				</port>
			</output>
		</layer>
		<layer id="42" name="bert.encoder.layer.0.attention.self.query.weight" type="Convert" version="opset1">
			<data destination_type="f32" />
			<rt_info>
				<attribute name="decompression" version="0" />
			</rt_info>
			<input>
				<port id="0" precision="FP16">
					<dim>1024</dim>
					<dim>1024</dim>
				</port>
			</input>
			<output>
				<port id="1" precision="FP32" names="bert.encoder.layer.0.attention.self.query.weight">
					<dim>1024</dim>
					<dim>1024</dim>
				</port>
			</output>
		</layer>
		<layer id="43" name="431" type="MatMul" version="opset1">
			<data transpose_a="false" transpose_b="true" />
			<input>
				<port id="0" precision="FP32">
					<dim>1</dim>
					<dim>384</dim>
					<dim>1024</dim>
				</port>
				<port id="1" precision="FP32">
					<dim>1024</dim>
					<dim>1024</dim>
				</port>
			</input>
			<output>
				<port id="2" precision="FP32" names="431">
					<dim>1</dim>
					<dim>384</dim>
					<dim>1024</dim>
				</port>
			</output>
		</layer>
		<layer id="44" name="Constant_17142_compressed" type="Const" version="opset1">
			<data element_type="f16" shape="1, 1, 1024" offset="65663008" size="2048" />
			<output>
				<port id="0" precision="FP16">
					<dim>1</dim>
					<dim>1</dim>
					<dim>1024</dim>
				</port>
			</output>
		</layer>
		<layer id="45" name="Constant_17142" type="Convert" version="opset1">
			<data destination_type="f32" />
			<rt_info>
				<attribute name="decompression" version="0" />
			</rt_info>
			<input>
				<port id="0" precision="FP16">
					<dim>1</dim>
					<dim>1</dim>
					<dim>1024</dim>
				</port>
			</input>
			<output>
				<port id="1" precision="FP32">
					<dim>1</dim>
					<dim>1</dim>
					<dim>1024</dim>
				</port>
			</output>
		</layer>
		<layer id="46" name="432" type="Add" version="opset1">
			<data auto_broadcast="numpy" />
			<input>
				<port id="0" precision="FP32">
					<dim>1</dim>
					<dim>384</dim>
					<dim>1024</dim>
				</port>
				<port id="1" precision="FP32">
					<dim>1</dim>
					<dim>1</dim>
					<dim>1024</dim>
				</port>
			</input>
			<output>
				<port id="2" precision="FP32" names="432">
					<dim>1</dim>
					<dim>384</dim>
					<dim>1024</dim>
				</port>
			</output>
		</layer>
		<layer id="47" name="451" type="Const" version="opset1">
			<data element_type="i64" shape="4" offset="65665056" size="32" />
			<output>
				<port id="0" precision="I64">
					<dim>4</dim>
				</port>
			</output>
		</layer>
		<layer id="48" name="452" type="Reshape" version="opset1">
			<data special_zero="true" />
			<input>
				<port id="0" precision="FP32">
					<dim>1</dim>
					<dim>384</dim>
					<dim>1024</dim>
				</port>
				<port id="1" precision="I64">
					<dim>4</dim>
				</port>
			</input>
			<output>
				<port id="2" precision="FP32" names="452">
					<dim>1</dim>
					<dim>384</dim>
					<dim>16</dim>
					<dim>64</dim>
				</port>
			</output>
		</layer>
		<layer id="49" name="Constant_478" type="Const" version="opset1">
			<data element_type="i64" shape="4" offset="65665088" size="32" />
			<output>
				<port id="0" precision="I64">
					<dim>4</dim>
				</port>
			</output>
		</layer>
		<layer id="50" name="453" type="Transpose" version="opset1">
			<input>
				<port id="0" precision="FP32">
					<dim>1</dim>
					<dim>384</dim>
					<dim>16</dim>
					<dim>64</dim>
				</port>
				<port id="1" precision="I64">
					<dim>4</dim>
				</port>
			</input>
			<output>
				<port id="2" precision="FP32" names="453">
					<dim>1</dim>
					<dim>16</dim>
					<dim>384</dim>
					<dim>64</dim>
				</port>
			</output>
		</layer>
		<layer id="51" name="bert.encoder.layer.0.attention.self.key.weight_compressed" type="Const" version="opset1">
			<data element_type="f16" shape="1024, 1024" offset="65665120" size="2097152" />
			<output>
				<port id="0" precision="FP16">
					<dim>1024</dim>
					<dim>1024</dim>
				</port>
			</output>
		</layer>
		<layer id="52" name="bert.encoder.layer.0.attention.self.key.weight" type="Convert" version="opset1">
			<data destination_type="f32" />
			<rt_info>
				<attribute name="decompression" version="0" />
			</rt_info>
			<input>
				<port id="0" precision="FP16">
					<dim>1024</dim>
					<dim>1024</dim>
				</port>
			</input>
			<output>
				<port id="1" precision="FP32" names="bert.encoder.layer.0.attention.self.key.weight">
					<dim>1024</dim>
					<dim>1024</dim>
				</port>
			</output>
		</layer>
		<layer id="53" name="434" type="MatMul" version="opset1">
			<data transpose_a="false" transpose_b="true" />
			<input>
				<port id="0" precision="FP32">
					<dim>1</dim>
					<dim>384</dim>
					<dim>1024</dim>
				</port>
				<port id="1" precision="FP32">
					<dim>1024</dim>
					<dim>1024</dim>
				</port>
			</input>
			<output>
				<port id="2" precision="FP32" names="434">
					<dim>1</dim>
					<dim>384</dim>
					<dim>1024</dim>
				</port>
			</output>
		</layer>
		<layer id="54" name="Constant_17143_compressed" type="Const" version="opset1">
			<data element_type="f16" shape="1, 1, 1024" offset="67762272" size="2048" />
			<output>
				<port id="0" precision="FP16">
					<dim>1</dim>
					<dim>1</dim>
					<dim>1024</dim>
				</port>
			</output>
		</layer>
		<layer id="55" name="Constant_17143" type="Convert" version="opset1">
			<data destination_type="f32" />
			<rt_info>
				<attribute name="decompression" version="0" />
			</rt_info>
			<input>
				<port id="0" precision="FP16">
					<dim>1</dim>
					<dim>1</dim>
					<dim>1024</dim>
				</port>
			</input>
			<output>
				<port id="1" precision="FP32">
					<dim>1</dim>
					<dim>1</dim>
					<dim>1024</dim>
				</port>
			</output>
		</layer>
		<layer id="56" name="435" type="Add" version="opset1">
			<data auto_broadcast="numpy" />
			<input>
				<port id="0" precision="FP32">
					<dim>1</dim>
					<dim>384</dim>
					<dim>1024</dim>
				</port>
				<port id="1" precision="FP32">
					<dim>1</dim>
					<dim>1</dim>
					<dim>1024</dim>
				</port>
			</input>
			<output>
				<port id="2" precision="FP32" names="435">
					<dim>1</dim>
					<dim>384</dim>
					<dim>1024</dim>
				</port>
			</output>
		</layer>
		<layer id="57" name="466" type="Const" version="opset1">
			<data element_type="i64" shape="4" offset="65665056" size="32" />
			<output>
				<port id="0" precision="I64">
					<dim>4</dim>
				</port>
			</output>
		</layer>
		<layer id="58" name="467" type="Reshape" version="opset1">
			<data special_zero="true" />
			<input>
				<port id="0" precision="FP32">
					<dim>1</dim>
					<dim>384</dim>
					<dim>1024</dim>
				</port>
				<port id="1" precision="I64">
					<dim>4</dim>
				</port>
			</input>
			<output>
				<port id="2" precision="FP32" names="467">
					<dim>1</dim>
					<dim>384</dim>
					<dim>16</dim>
					<dim>64</dim>
				</port>
			</output>
		</layer>
		<layer id="59" name="Constant_526" type="Const" version="opset1">
			<data element_type="i64" shape="4" offset="67764320" size="32" />
			<output>
				<port id="0" precision="I64">
					<dim>4</dim>
				</port>
			</output>
		</layer>
		<layer id="60" name="483" type="Transpose" version="opset1">
			<input>
				<port id="0" precision="FP32">
					<dim>1</dim>
					<dim>384</dim>
					<dim>16</dim>
					<dim>64</dim>
				</port>
				<port id="1" precision="I64">
					<dim>4</dim>
				</port>
			</input>
			<output>
				<port id="2" precision="FP32" names="483">
					<dim>1</dim>
					<dim>16</dim>
					<dim>64</dim>
					<dim>384</dim>
				</port>
			</output>
		</layer>
		<layer id="61" name="Constant_17144_compressed" type="Const" version="opset1">
			<data element_type="f16" shape="1, 1, 1, 1" offset="67764352" size="2" />
			<output>
				<port id="0" precision="FP16">
					<dim>1</dim>
					<dim>1</dim>
					<dim>1</dim>
					<dim>1</dim>
				</port>
			</output>
		</layer>
		<layer id="62" name="Constant_17144" type="Convert" version="opset1">
			<data destination_type="f32" />
			<rt_info>
				<attribute name="decompression" version="0" />
			</rt_info>
			<input>
				<port id="0" precision="FP16">
					<dim>1</dim>
					<dim>1</dim>
					<dim>1</dim>
					<dim>1</dim>
				</port>
			</input>
			<output>
				<port id="1" precision="FP32">
					<dim>1</dim>
					<dim>1</dim>
					<dim>1</dim>
					<dim>1</dim>
				</port>
			</output>
		</layer>
		<layer id="63" name="Multiply_16847" type="Multiply" version="opset1">
			<data auto_broadcast="numpy" />
			<input>
				<port id="0" precision="FP32">
					<dim>1</dim>
					<dim>16</dim>
					<dim>64</dim>
					<dim>384</dim>
				</port>
				<port id="1" precision="FP32">
					<dim>1</dim>
					<dim>1</dim>
					<dim>1</dim>
					<dim>1</dim>
				</port>
			</input>
			<output>
				<port id="2" precision="FP32">
					<dim>1</dim>
					<dim>16</dim>
					<dim>64</dim>
					<dim>384</dim>
				</port>
			</output>
		</layer>
		<layer id="64" name="486" type="MatMul" version="opset1">
			<data transpose_a="false" transpose_b="false" />
			<input>
				<port id="0" precision="FP32">
					<dim>1</dim>
					<dim>16</dim>
					<dim>384</dim>
					<dim>64</dim>
				</port>
				<port id="1" precision="FP32">
					<dim>1</dim>
					<dim>16</dim>
					<dim>64</dim>
					<dim>384</dim>
				</port>
			</input>
			<output>
				<port id="2" precision="FP32" names="486">
					<dim>1</dim>
					<dim>16</dim>
					<dim>384</dim>
					<dim>384</dim>
				</port>
			</output>
		</layer>
		<layer id="65" name="Constant_17145_compressed" type="Const" version="opset1">
			<data element_type="f16" shape="1, 1, 1, 1" offset="67764354" size="2" />
			<output>
				<port id="0" precision="FP16">
					<dim>1</dim>
					<dim>1</dim>
					<dim>1</dim>
					<dim>1</dim>
				</port>
			</output>
		</layer>
		<layer id="66" name="Constant_17145" type="Convert" version="opset1">
			<data destination_type="f32" />
			<rt_info>
				<attribute name="decompression" version="0" />
			</rt_info>
			<input>
				<port id="0" precision="FP16">
					<dim>1</dim>
					<dim>1</dim>
					<dim>1</dim>
					<dim>1</dim>
				</port>
			</input>
			<output>
				<port id="1" precision="FP32">
					<dim>1</dim>
					<dim>1</dim>
					<dim>1</dim>
					<dim>1</dim>
				</port>
			</output>
		</layer>
		<layer id="67" name="Constant_397" type="Const" version="opset1">
			<data element_type="i64" shape="1" offset="63557640" size="8" />
			<output>
				<port id="0" precision="I64">
					<dim>1</dim>
				</port>
			</output>
		</layer>
		<layer id="68" name="396" type="Unsqueeze" version="opset1">
			<input>
				<port id="0" precision="I64">
					<dim>1</dim>
					<dim>384</dim>
				</port>
				<port id="1" precision="I64">
					<dim>1</dim>
				</port>
			</input>
			<output>
				<port id="2" precision="I64" names="396">
					<dim>1</dim>
					<dim>1</dim>
					<dim>384</dim>
				</port>
			</output>
		</layer>
		<layer id="69" name="Constant_399" type="Const" version="opset1">
			<data element_type="i64" shape="1" offset="67764356" size="8" />
			<output>
				<port id="0" precision="I64">
					<dim>1</dim>
				</port>
			</output>
		</layer>
		<layer id="70" name="397" type="Unsqueeze" version="opset1">
			<input>
				<port id="0" precision="I64">
					<dim>1</dim>
					<dim>1</dim>
					<dim>384</dim>
				</port>
				<port id="1" precision="I64">
					<dim>1</dim>
				</port>
			</input>
			<output>
				<port id="2" precision="I64" names="397">
					<dim>1</dim>
					<dim>1</dim>
					<dim>1</dim>
					<dim>384</dim>
				</port>
			</output>
		</layer>
		<layer id="71" name="398" type="Convert" version="opset1">
			<data destination_type="f32" />
			<input>
				<port id="0" precision="I64">
					<dim>1</dim>
					<dim>1</dim>
					<dim>1</dim>
					<dim>384</dim>
				</port>
			</input>
			<output>
				<port id="1" precision="FP32" names="398">
					<dim>1</dim>
					<dim>1</dim>
					<dim>1</dim>
					<dim>384</dim>
				</port>
			</output>
		</layer>
		<layer id="72" name="400" type="Subtract" version="opset1">
			<data auto_broadcast="numpy" />
			<input>
				<port id="0" precision="FP32">
					<dim>1</dim>
					<dim>1</dim>
					<dim>1</dim>
					<dim>1</dim>
				</port>
				<port id="1" precision="FP32">
					<dim>1</dim>
					<dim>1</dim>
					<dim>1</dim>
					<dim>384</dim>
				</port>
			</input>
			<output>
				<port id="2" precision="FP32" names="400">
					<dim>1</dim>
					<dim>1</dim>
					<dim>1</dim>
					<dim>384</dim>
				</port>
			</output>
		</layer>
		<layer id="73" name="Constant_17146_compressed" type="Const" version="opset1">
			<data element_type="f16" shape="1, 1, 1, 1" offset="67764364" size="2" />
			<output>
				<port id="0" precision="FP16">
					<dim>1</dim>
					<dim>1</dim>
					<dim>1</dim>
					<dim>1</dim>
				</port>
			</output>
		</layer>
		<layer id="74" name="Constant_17146" type="Convert" version="opset1">
			<data destination_type="f32" />
			<rt_info>
				<attribute name="decompression" version="0" />
			</rt_info>
			<input>
				<port id="0" precision="FP16">
					<dim>1</dim>
					<dim>1</dim>
					<dim>1</dim>
					<dim>1</dim>
				</port>
			</input>
			<output>
				<port id="1" precision="FP32">
					<dim>1</dim>
					<dim>1</dim>
					<dim>1</dim>
					<dim>1</dim>
				</port>
			</output>
		</layer>
		<layer id="75" name="402" type="Multiply" version="opset1">
			<data auto_broadcast="numpy" />
			<input>
				<port id="0" precision="FP32">
					<dim>1</dim>
					<dim>1</dim>
					<dim>1</dim>
					<dim>384</dim>
				</port>
				<port id="1" precision="FP32">
					<dim>1</dim>
					<dim>1</dim>
					<dim>1</dim>
					<dim>1</dim>
				</port>
			</input>
			<output>
				<port id="2" precision="FP32" names="402">
					<dim>1</dim>
					<dim>1</dim>
					<dim>1</dim>
					<dim>384</dim>
				</port>
			</output>
		</layer>
		<layer id="76" name="487" type="Add" version="opset1">
			<data auto_broadcast="numpy" />
			<input>
				<port id="0" precision="FP32">
					<dim>1</dim>
					<dim>16</dim>
					<dim>384</dim>
					<dim>384</dim>
				</port>
				<port id="1" precision="FP32">
					<dim>1</dim>
					<dim>1</dim>
					<dim>1</dim>
					<dim>384</dim>
				</port>
			</input>
			<output>
				<port id="2" precision="FP32" names="487">
					<dim>1</dim>
					<dim>16</dim>
					<dim>384</dim>
					<dim>384</dim>
				</port>
			</output>
		</layer>
		<layer id="77" name="ShapeOf_532" type="ShapeOf" version="opset1">
			<input>
				<port id="0" precision="FP32">
					<dim>1</dim>
					<dim>16</dim>
					<dim>384</dim>
					<dim>384</dim>
				</port>
			</input>
			<output>
				<port id="1" precision="I64">
					<dim>4</dim>
				</port>
			</output>
		</layer>
		<layer id="78" name="Constant_535" type="Const" version="opset1">
			<data element_type="i64" shape="1" offset="62509056" size="8" />
			<output>
				<port id="0" precision="I64">
					<dim>1</dim>
				</port>
			</output>
		</layer>
		<layer id="79" name="Constant_534" type="Const" version="opset1">
			<data element_type="i64" shape="1" offset="67764366" size="8" />
			<output>
				<port id="0" precision="I64">
					<dim>1</dim>
				</port>
			</output>
		</layer>
		<layer id="80" name="Constant_536" type="Const" version="opset1">
			<data element_type="i64" shape="1" offset="63557640" size="8" />
			<output>
				<port id="0" precision="I64">
					<dim>1</dim>
				</port>
			</output>
		</layer>
		<layer id="81" name="StridedSlice_537" type="StridedSlice" version="opset1">
			<data begin_mask="0" end_mask="0" new_axis_mask="" shrink_axis_mask="" ellipsis_mask="" />
			<input>
				<port id="0" precision="I64">
					<dim>4</dim>
				</port>
				<port id="1" precision="I64">
					<dim>1</dim>
				</port>
				<port id="2" precision="I64">
					<dim>1</dim>
				</port>
				<port id="3" precision="I64">
					<dim>1</dim>
				</port>
			</input>
			<output>
				<port id="4" precision="I64">
					<dim>3</dim>
				</port>
			</output>
		</layer>
		<layer id="82" name="Constant_538" type="Const" version="opset1">
			<data element_type="i64" shape="" offset="62509056" size="8" />
			<output>
				<port id="0" precision="I64" />
			</output>
		</layer>
		<layer id="83" name="ReduceProd_539" type="ReduceProd" version="opset1">
			<data keep_dims="true" />
			<input>
				<port id="0" precision="I64">
					<dim>3</dim>
				</port>
				<port id="1" precision="I64" />
			</input>
			<output>
				<port id="2" precision="I64">
					<dim>1</dim>
				</port>
			</output>
		</layer>
		<layer id="84" name="Constant_540" type="Const" version="opset1">
			<data element_type="i64" shape="1" offset="63561752" size="8" />
			<output>
				<port id="0" precision="I64">
					<dim>1</dim>
				</port>
			</output>
		</layer>
		<layer id="85" name="Concat_541" type="Concat" version="opset1">
			<data axis="0" />
			<input>
				<port id="0" precision="I64">
					<dim>1</dim>
				</port>
				<port id="1" precision="I64">
					<dim>1</dim>
				</port>
			</input>
			<output>
				<port id="2" precision="I64">
					<dim>2</dim>
				</port>
			</output>
		</layer>
		<layer id="86" name="Reshape_542" type="Reshape" version="opset1">
			<data special_zero="true" />
			<input>
				<port id="0" precision="FP32">
					<dim>1</dim>
					<dim>16</dim>
					<dim>384</dim>
					<dim>384</dim>
				</port>
				<port id="1" precision="I64">
					<dim>2</dim>
				</port>
			</input>
			<output>
				<port id="2" precision="FP32">
					<dim>6144</dim>
					<dim>384</dim>
				</port>
			</output>
		</layer>
		<layer id="87" name="Softmax_573" type="SoftMax" version="opset8">
			<data axis="1" />
			<input>
				<port id="0" precision="FP32">
					<dim>6144</dim>
					<dim>384</dim>
				</port>
			</input>
			<output>
				<port id="1" precision="FP32">
					<dim>6144</dim>
					<dim>384</dim>
				</port>
			</output>
		</layer>
		<layer id="88" name="488" type="Reshape" version="opset1">
			<data special_zero="false" />
			<input>
				<port id="0" precision="FP32">
					<dim>6144</dim>
					<dim>384</dim>
				</port>
				<port id="1" precision="I64">
					<dim>4</dim>
				</port>
			</input>
			<output>
				<port id="2" precision="FP32" names="488">
					<dim>1</dim>
					<dim>16</dim>
					<dim>384</dim>
					<dim>384</dim>
				</port>
			</output>
		</layer>
		<layer id="89" name="bert.encoder.layer.0.attention.self.value.weight_compressed" type="Const" version="opset1">
			<data element_type="f16" shape="1024, 1024" offset="67764374" size="2097152" />
			<output>
				<port id="0" precision="FP16">
					<dim>1024</dim>
					<dim>1024</dim>
				</port>
			</output>
		</layer>
		<layer id="90" name="bert.encoder.layer.0.attention.self.value.weight" type="Convert" version="opset1">
			<data destination_type="f32" />
			<rt_info>
				<attribute name="decompression" version="0" />
			</rt_info>
			<input>
				<port id="0" precision="FP16">
					<dim>1024</dim>
					<dim>1024</dim>
				</port>
			</input>
			<output>
				<port id="1" precision="FP32" names="bert.encoder.layer.0.attention.self.value.weight">
					<dim>1024</dim>
					<dim>1024</dim>
				</port>
			</output>
		</layer>
		<layer id="91" name="437" type="MatMul" version="opset1">
			<data transpose_a="false" transpose_b="true" />
			<input>
				<port id="0" precision="FP32">
					<dim>1</dim>
					<dim>384</dim>
					<dim>1024</dim>
				</port>
				<port id="1" precision="FP32">
					<dim>1024</dim>
					<dim>1024</dim>
				</port>
			</input>
			<output>
				<port id="2" precision="FP32" names="437">
					<dim>1</dim>
					<dim>384</dim>
					<dim>1024</dim>
				</port>
			</output>
		</layer>
		<layer id="92" name="Constant_17147_compressed" type="Const" version="opset1">
			<data element_type="f16" shape="1, 1, 1024" offset="69861526" size="2048" />
			<output>
				<port id="0" precision="FP16">
					<dim>1</dim>
					<dim>1</dim>
					<dim>1024</dim>
				</port>
			</output>
		</layer>
		<layer id="93" name="Constant_17147" type="Convert" version="opset1">
			<data destination_type="f32" />
			<rt_info>
				<attribute name="decompression" version="0" />
			</rt_info>
			<input>
				<port id="0" precision="FP16">
					<dim>1</dim>
					<dim>1</dim>
					<dim>1024</dim>
				</port>
			</input>
			<output>
				<port id="1" precision="FP32">
					<dim>1</dim>
					<dim>1</dim>
					<dim>1024</dim>
				</port>
			</output>
		</layer>
		<layer id="94" name="438" type="Add" version="opset1">
			<data auto_broadcast="numpy" />
			<input>
				<port id="0" precision="FP32">
					<dim>1</dim>
					<dim>384</dim>
					<dim>1024</dim>
				</port>
				<port id="1" precision="FP32">
					<dim>1</dim>
					<dim>1</dim>
					<dim>1024</dim>
				</port>
			</input>
			<output>
				<port id="2" precision="FP32" names="438">
					<dim>1</dim>
					<dim>384</dim>
					<dim>1024</dim>
				</port>
			</output>
		</layer>
		<layer id="95" name="480" type="Const" version="opset1">
			<data element_type="i64" shape="4" offset="65665056" size="32" />
			<output>
				<port id="0" precision="I64">
					<dim>4</dim>
				</port>
			</output>
		</layer>
		<layer id="96" name="481" type="Reshape" version="opset1">
			<data special_zero="true" />
			<input>
				<port id="0" precision="FP32">
					<dim>1</dim>
					<dim>384</dim>
					<dim>1024</dim>
				</port>
				<port id="1" precision="I64">
					<dim>4</dim>
				</port>
			</input>
			<output>
				<port id="2" precision="FP32" names="481">
					<dim>1</dim>
					<dim>384</dim>
					<dim>16</dim>
					<dim>64</dim>
				</port>
			</output>
		</layer>
		<layer id="97" name="Constant_524" type="Const" version="opset1">
			<data element_type="i64" shape="4" offset="65665088" size="32" />
			<output>
				<port id="0" precision="I64">
					<dim>4</dim>
				</port>
			</output>
		</layer>
		<layer id="98" name="482" type="Transpose" version="opset1">
			<input>
				<port id="0" precision="FP32">
					<dim>1</dim>
					<dim>384</dim>
					<dim>16</dim>
					<dim>64</dim>
				</port>
				<port id="1" precision="I64">
					<dim>4</dim>
				</port>
			</input>
			<output>
				<port id="2" precision="FP32" names="482">
					<dim>1</dim>
					<dim>16</dim>
					<dim>384</dim>
					<dim>64</dim>
				</port>
			</output>
		</layer>
		<layer id="99" name="489" type="MatMul" version="opset1">
			<data transpose_a="false" transpose_b="false" />
			<input>
				<port id="0" precision="FP32">
					<dim>1</dim>
					<dim>16</dim>
					<dim>384</dim>
					<dim>384</dim>
				</port>
				<port id="1" precision="FP32">
					<dim>1</dim>
					<dim>16</dim>
					<dim>384</dim>
					<dim>64</dim>
				</port>
			</input>
			<output>
				<port id="2" precision="FP32" names="489">
					<dim>1</dim>
					<dim>16</dim>
					<dim>384</dim>
					<dim>64</dim>
				</port>
			</output>
		</layer>
		<layer id="100" name="Constant_579" type="Const" version="opset1">
			<data element_type="i64" shape="4" offset="65665088" size="32" />
			<output>
				<port id="0" precision="I64">
					<dim>4</dim>
				</port>
			</output>
		</layer>
		<layer id="101" name="490" type="Transpose" version="opset1">
			<input>
				<port id="0" precision="FP32">
					<dim>1</dim>
					<dim>16</dim>
					<dim>384</dim>
					<dim>64</dim>
				</port>
				<port id="1" precision="I64">
					<dim>4</dim>
				</port>
			</input>
			<output>
				<port id="2" precision="FP32" names="490">
					<dim>1</dim>
					<dim>384</dim>
					<dim>16</dim>
					<dim>64</dim>
				</port>
			</output>
		</layer>
		<layer id="102" name="501" type="Const" version="opset1">
			<data element_type="i64" shape="3" offset="69863574" size="24" />
			<output>
				<port id="0" precision="I64">
					<dim>3</dim>
				</port>
			</output>
		</layer>
		<layer id="103" name="502" type="Reshape" version="opset1">
			<data special_zero="true" />
			<input>
				<port id="0" precision="FP32">
					<dim>1</dim>
					<dim>384</dim>
					<dim>16</dim>
					<dim>64</dim>
				</port>
				<port id="1" precision="I64">
					<dim>3</dim>
				</port>
			</input>
			<output>
				<port id="2" precision="FP32" names="502">
					<dim>1</dim>
					<dim>384</dim>
					<dim>1024</dim>
				</port>
			</output>
		</layer>
		<layer id="104" name="bert.encoder.layer.0.attention.output.dense.weight_compressed" type="Const" version="opset1">
			<data element_type="f16" shape="1024, 1024" offset="69863598" size="2097152" />
			<output>
				<port id="0" precision="FP16">
					<dim>1024</dim>
					<dim>1024</dim>
				</port>
			</output>
		</layer>
		<layer id="105" name="bert.encoder.layer.0.attention.output.dense.weight" type="Convert" version="opset1">
			<data destination_type="f32" />
			<rt_info>
				<attribute name="decompression" version="0" />
			</rt_info>
			<input>
				<port id="0" precision="FP16">
					<dim>1024</dim>
					<dim>1024</dim>
				</port>
			</input>
			<output>
				<port id="1" precision="FP32" names="bert.encoder.layer.0.attention.output.dense.weight">
					<dim>1024</dim>
					<dim>1024</dim>
				</port>
			</output>
		</layer>
		<layer id="106" name="504" type="MatMul" version="opset1">
			<data transpose_a="false" transpose_b="true" />
			<input>
				<port id="0" precision="FP32">
					<dim>1</dim>
					<dim>384</dim>
					<dim>1024</dim>
				</port>
				<port id="1" precision="FP32">
					<dim>1024</dim>
					<dim>1024</dim>
				</port>
			</input>
			<output>
				<port id="2" precision="FP32" names="504">
					<dim>1</dim>
					<dim>384</dim>
					<dim>1024</dim>
				</port>
			</output>
		</layer>
		<layer id="107" name="Constant_17148_compressed" type="Const" version="opset1">
			<data element_type="f16" shape="1, 1, 1024" offset="71960750" size="2048" />
			<output>
				<port id="0" precision="FP16">
					<dim>1</dim>
					<dim>1</dim>
					<dim>1024</dim>
				</port>
			</output>
		</layer>
		<layer id="108" name="Constant_17148" type="Convert" version="opset1">
			<data destination_type="f32" />
			<rt_info>
				<attribute name="decompression" version="0" />
			</rt_info>
			<input>
				<port id="0" precision="FP16">
					<dim>1</dim>
					<dim>1</dim>
					<dim>1024</dim>
				</port>
			</input>
			<output>
				<port id="1" precision="FP32">
					<dim>1</dim>
					<dim>1</dim>
					<dim>1024</dim>
				</port>
			</output>
		</layer>
		<layer id="109" name="505" type="Add" version="opset1">
			<data auto_broadcast="numpy" />
			<input>
				<port id="0" precision="FP32">
					<dim>1</dim>
					<dim>384</dim>
					<dim>1024</dim>
				</port>
				<port id="1" precision="FP32">
					<dim>1</dim>
					<dim>1</dim>
					<dim>1024</dim>
				</port>
			</input>
			<output>
				<port id="2" precision="FP32" names="505">
					<dim>1</dim>
					<dim>384</dim>
					<dim>1024</dim>
				</port>
			</output>
		</layer>
		<layer id="110" name="506" type="Add" version="opset1">
			<data auto_broadcast="numpy" />
			<input>
				<port id="0" precision="FP32">
					<dim>1</dim>
					<dim>384</dim>
					<dim>1024</dim>
				</port>
				<port id="1" precision="FP32">
					<dim>1</dim>
					<dim>384</dim>
					<dim>1024</dim>
				</port>
			</input>
			<output>
				<port id="2" precision="FP32" names="506">
					<dim>1</dim>
					<dim>384</dim>
					<dim>1024</dim>
				</port>
			</output>
		</layer>
		<layer id="111" name="Constant_605" type="Const" version="opset1">
			<data element_type="i64" shape="1" offset="63561752" size="8" />
			<output>
				<port id="0" precision="I64">
					<dim>1</dim>
				</port>
			</output>
		</layer>
		<layer id="112" name="515" type="MVN" version="opset6">
			<data eps="9.999999960041972e-13" normalize_variance="true" eps_mode="INSIDE_SQRT" />
			<input>
				<port id="0" precision="FP32">
					<dim>1</dim>
					<dim>384</dim>
					<dim>1024</dim>
				</port>
				<port id="1" precision="I64">
					<dim>1</dim>
				</port>
			</input>
			<output>
				<port id="2" precision="FP32" names="515">
					<dim>1</dim>
					<dim>384</dim>
					<dim>1024</dim>
				</port>
			</output>
		</layer>
		<layer id="113" name="Constant_17149_compressed" type="Const" version="opset1">
			<data element_type="f16" shape="1, 1, 1024" offset="71962798" size="2048" />
			<output>
				<port id="0" precision="FP16">
					<dim>1</dim>
					<dim>1</dim>
					<dim>1024</dim>
				</port>
			</output>
		</layer>
		<layer id="114" name="Constant_17149" type="Convert" version="opset1">
			<data destination_type="f32" />
			<rt_info>
				<attribute name="decompression" version="0" />
			</rt_info>
			<input>
				<port id="0" precision="FP16">
					<dim>1</dim>
					<dim>1</dim>
					<dim>1024</dim>
				</port>
			</input>
			<output>
				<port id="1" precision="FP32">
					<dim>1</dim>
					<dim>1</dim>
					<dim>1024</dim>
				</port>
			</output>
		</layer>
		<layer id="115" name="516" type="Multiply" version="opset1">
			<data auto_broadcast="numpy" />
			<input>
				<port id="0" precision="FP32">
					<dim>1</dim>
					<dim>384</dim>
					<dim>1024</dim>
				</port>
				<port id="1" precision="FP32">
					<dim>1</dim>
					<dim>1</dim>
					<dim>1024</dim>
				</port>
			</input>
			<output>
				<port id="2" precision="FP32" names="516">
					<dim>1</dim>
					<dim>384</dim>
					<dim>1024</dim>
				</port>
			</output>
		</layer>
		<layer id="116" name="Constant_17150_compressed" type="Const" version="opset1">
			<data element_type="f16" shape="1, 1, 1024" offset="71964846" size="2048" />
			<output>
				<port id="0" precision="FP16">
					<dim>1</dim>
					<dim>1</dim>
					<dim>1024</dim>
				</port>
			</output>
		</layer>
		<layer id="117" name="Constant_17150" type="Convert" version="opset1">
			<data destination_type="f32" />
			<rt_info>
				<attribute name="decompression" version="0" />
			</rt_info>
			<input>
				<port id="0" precision="FP16">
					<dim>1</dim>
					<dim>1</dim>
					<dim>1024</dim>
				</port>
			</input>
			<output>
				<port id="1" precision="FP32">
					<dim>1</dim>
					<dim>1</dim>
					<dim>1024</dim>
				</port>
			</output>
		</layer>
		<layer id="118" name="517" type="Add" version="opset1">
			<data auto_broadcast="numpy" />
			<input>
				<port id="0" precision="FP32">
					<dim>1</dim>
					<dim>384</dim>
					<dim>1024</dim>
				</port>
				<port id="1" precision="FP32">
					<dim>1</dim>
					<dim>1</dim>
					<dim>1024</dim>
				</port>
			</input>
			<output>
				<port id="2" precision="FP32" names="517">
					<dim>1</dim>
					<dim>384</dim>
					<dim>1024</dim>
				</port>
			</output>
		</layer>
		<layer id="119" name="bert.encoder.layer.0.intermediate.dense.weight_compressed" type="Const" version="opset1">
			<data element_type="f16" shape="4096, 1024" offset="71966894" size="8388608" />
			<output>
				<port id="0" precision="FP16">
					<dim>4096</dim>
					<dim>1024</dim>
				</port>
			</output>
		</layer>
		<layer id="120" name="bert.encoder.layer.0.intermediate.dense.weight" type="Convert" version="opset1">
			<data destination_type="f32" />
			<rt_info>
				<attribute name="decompression" version="0" />
			</rt_info>
			<input>
				<port id="0" precision="FP16">
					<dim>4096</dim>
					<dim>1024</dim>
				</port>
			</input>
			<output>
				<port id="1" precision="FP32" names="bert.encoder.layer.0.intermediate.dense.weight">
					<dim>4096</dim>
					<dim>1024</dim>
				</port>
			</output>
		</layer>
		<layer id="121" name="519" type="MatMul" version="opset1">
			<data transpose_a="false" transpose_b="true" />
			<input>
				<port id="0" precision="FP32">
					<dim>1</dim>
					<dim>384</dim>
					<dim>1024</dim>
				</port>
				<port id="1" precision="FP32">
					<dim>4096</dim>
					<dim>1024</dim>
				</port>
			</input>
			<output>
				<port id="2" precision="FP32" names="519">
					<dim>1</dim>
					<dim>384</dim>
					<dim>4096</dim>
				</port>
			</output>
		</layer>
		<layer id="122" name="Constant_17151_compressed" type="Const" version="opset1">
			<data element_type="f16" shape="1, 1, 4096" offset="80355502" size="8192" />
			<output>
				<port id="0" precision="FP16">
					<dim>1</dim>
					<dim>1</dim>
					<dim>4096</dim>
				</port>
			</output>
		</layer>
		<layer id="123" name="Constant_17151" type="Convert" version="opset1">
			<data destination_type="f32" />
			<rt_info>
				<attribute name="decompression" version="0" />
			</rt_info>
			<input>
				<port id="0" precision="FP16">
					<dim>1</dim>
					<dim>1</dim>
					<dim>4096</dim>
				</port>
			</input>
			<output>
				<port id="1" precision="FP32">
					<dim>1</dim>
					<dim>1</dim>
					<dim>4096</dim>
				</port>
			</output>
		</layer>
		<layer id="124" name="520" type="Add" version="opset1">
			<data auto_broadcast="numpy" />
			<input>
				<port id="0" precision="FP32">
					<dim>1</dim>
					<dim>384</dim>
					<dim>4096</dim>
				</port>
				<port id="1" precision="FP32">
					<dim>1</dim>
					<dim>1</dim>
					<dim>4096</dim>
				</port>
			</input>
			<output>
				<port id="2" precision="FP32" names="520">
					<dim>1</dim>
					<dim>384</dim>
					<dim>4096</dim>
				</port>
			</output>
		</layer>
		<layer id="125" name="528" type="Gelu" version="opset7">
			<data approximation_mode="ERF" />
			<input>
				<port id="0" precision="FP32">
					<dim>1</dim>
					<dim>384</dim>
					<dim>4096</dim>
				</port>
			</input>
			<output>
				<port id="1" precision="FP32" names="528">
					<dim>1</dim>
					<dim>384</dim>
					<dim>4096</dim>
				</port>
			</output>
		</layer>
		<layer id="126" name="bert.encoder.layer.0.output.dense.weight_compressed" type="Const" version="opset1">
			<data element_type="f16" shape="1024, 4096" offset="80363694" size="8388608" />
			<output>
				<port id="0" precision="FP16">
					<dim>1024</dim>
					<dim>4096</dim>
				</port>
			</output>
		</layer>
		<layer id="127" name="bert.encoder.layer.0.output.dense.weight" type="Convert" version="opset1">
			<data destination_type="f32" />
			<rt_info>
				<attribute name="decompression" version="0" />
			</rt_info>
			<input>
				<port id="0" precision="FP16">
					<dim>1024</dim>
					<dim>4096</dim>
				</port>
			</input>
			<output>
				<port id="1" precision="FP32" names="bert.encoder.layer.0.output.dense.weight">
					<dim>1024</dim>
					<dim>4096</dim>
				</port>
			</output>
		</layer>
		<layer id="128" name="530" type="MatMul" version="opset1">
			<data transpose_a="false" transpose_b="true" />
			<input>
				<port id="0" precision="FP32">
					<dim>1</dim>
					<dim>384</dim>
					<dim>4096</dim>
				</port>
				<port id="1" precision="FP32">
					<dim>1024</dim>
					<dim>4096</dim>
				</port>
			</input>
			<output>
				<port id="2" precision="FP32" names="530">
					<dim>1</dim>
					<dim>384</dim>
					<dim>1024</dim>
				</port>
			</output>
		</layer>
		<layer id="129" name="Constant_17152_compressed" type="Const" version="opset1">
			<data element_type="f16" shape="1, 1, 1024" offset="88752302" size="2048" />
			<output>
				<port id="0" precision="FP16">
					<dim>1</dim>
					<dim>1</dim>
					<dim>1024</dim>
				</port>
			</output>
		</layer>
		<layer id="130" name="Constant_17152" type="Convert" version="opset1">
			<data destination_type="f32" />
			<rt_info>
				<attribute name="decompression" version="0" />
			</rt_info>
			<input>
				<port id="0" precision="FP16">
					<dim>1</dim>
					<dim>1</dim>
					<dim>1024</dim>
				</port>
			</input>
			<output>
				<port id="1" precision="FP32">
					<dim>1</dim>
					<dim>1</dim>
					<dim>1024</dim>
				</port>
			</output>
		</layer>
		<layer id="131" name="531" type="Add" version="opset1">
			<data auto_broadcast="numpy" />
			<input>
				<port id="0" precision="FP32">
					<dim>1</dim>
					<dim>384</dim>
					<dim>1024</dim>
				</port>
				<port id="1" precision="FP32">
					<dim>1</dim>
					<dim>1</dim>
					<dim>1024</dim>
				</port>
			</input>
			<output>
				<port id="2" precision="FP32" names="531">
					<dim>1</dim>
					<dim>384</dim>
					<dim>1024</dim>
				</port>
			</output>
		</layer>
		<layer id="132" name="532" type="Add" version="opset1">
			<data auto_broadcast="numpy" />
			<input>
				<port id="0" precision="FP32">
					<dim>1</dim>
					<dim>384</dim>
					<dim>1024</dim>
				</port>
				<port id="1" precision="FP32">
					<dim>1</dim>
					<dim>384</dim>
					<dim>1024</dim>
				</port>
			</input>
			<output>
				<port id="2" precision="FP32" names="532">
					<dim>1</dim>
					<dim>384</dim>
					<dim>1024</dim>
				</port>
			</output>
		</layer>
		<layer id="133" name="Constant_635" type="Const" version="opset1">
			<data element_type="i64" shape="1" offset="63561752" size="8" />
			<output>
				<port id="0" precision="I64">
					<dim>1</dim>
				</port>
			</output>
		</layer>
		<layer id="134" name="541" type="MVN" version="opset6">
			<data eps="9.999999960041972e-13" normalize_variance="true" eps_mode="INSIDE_SQRT" />
			<input>
				<port id="0" precision="FP32">
					<dim>1</dim>
					<dim>384</dim>
					<dim>1024</dim>
				</port>
				<port id="1" precision="I64">
					<dim>1</dim>
				</port>
			</input>
			<output>
				<port id="2" precision="FP32" names="541">
					<dim>1</dim>
					<dim>384</dim>
					<dim>1024</dim>
				</port>
			</output>
		</layer>
		<layer id="135" name="Constant_17153_compressed" type="Const" version="opset1">
			<data element_type="f16" shape="1, 1, 1024" offset="88754350" size="2048" />
			<output>
				<port id="0" precision="FP16">
					<dim>1</dim>
					<dim>1</dim>
					<dim>1024</dim>
				</port>
			</output>
		</layer>
		<layer id="136" name="Constant_17153" type="Convert" version="opset1">
			<data destination_type="f32" />
			<rt_info>
				<attribute name="decompression" version="0" />
			</rt_info>
			<input>
				<port id="0" precision="FP16">
					<dim>1</dim>
					<dim>1</dim>
					<dim>1024</dim>
				</port>
			</input>
			<output>
				<port id="1" precision="FP32">
					<dim>1</dim>
					<dim>1</dim>
					<dim>1024</dim>
				</port>
			</output>
		</layer>
		<layer id="137" name="542" type="Multiply" version="opset1">
			<data auto_broadcast="numpy" />
			<input>
				<port id="0" precision="FP32">
					<dim>1</dim>
					<dim>384</dim>
					<dim>1024</dim>
				</port>
				<port id="1" precision="FP32">
					<dim>1</dim>
					<dim>1</dim>
					<dim>1024</dim>
				</port>
			</input>
			<output>
				<port id="2" precision="FP32" names="542">
					<dim>1</dim>
					<dim>384</dim>
					<dim>1024</dim>
				</port>
			</output>
		</layer>
		<layer id="138" name="Constant_17154_compressed" type="Const" version="opset1">
			<data element_type="f16" shape="1, 1, 1024" offset="88756398" size="2048" />
			<output>
				<port id="0" precision="FP16">
					<dim>1</dim>
					<dim>1</dim>
					<dim>1024</dim>
				</port>
			</output>
		</layer>
		<layer id="139" name="Constant_17154" type="Convert" version="opset1">
			<data destination_type="f32" />
			<rt_info>
				<attribute name="decompression" version="0" />
			</rt_info>
			<input>
				<port id="0" precision="FP16">
					<dim>1</dim>
					<dim>1</dim>
					<dim>1024</dim>
				</port>
			</input>
			<output>
				<port id="1" precision="FP32">
					<dim>1</dim>
					<dim>1</dim>
					<dim>1024</dim>
				</port>
			</output>
		</layer>
		<layer id="140" name="543" type="Add" version="opset1">
			<data auto_broadcast="numpy" />
			<input>
				<port id="0" precision="FP32">
					<dim>1</dim>
					<dim>384</dim>
					<dim>1024</dim>
				</port>
				<port id="1" precision="FP32">
					<dim>1</dim>
					<dim>1</dim>
					<dim>1024</dim>
				</port>
			</input>
			<output>
				<port id="2" precision="FP32" names="543">
					<dim>1</dim>
					<dim>384</dim>
					<dim>1024</dim>
				</port>
			</output>
		</layer>
		<layer id="141" name="bert.encoder.layer.1.attention.self.query.weight_compressed" type="Const" version="opset1">
			<data element_type="f16" shape="1024, 1024" offset="88758446" size="2097152" />
			<output>
				<port id="0" precision="FP16">
					<dim>1024</dim>
					<dim>1024</dim>
				</port>
			</output>
		</layer>
		<layer id="142" name="bert.encoder.layer.1.attention.self.query.weight" type="Convert" version="opset1">
			<data destination_type="f32" />
			<rt_info>
				<attribute name="decompression" version="0" />
			</rt_info>
			<input>
				<port id="0" precision="FP16">
					<dim>1024</dim>
					<dim>1024</dim>
				</port>
			</input>
			<output>
				<port id="1" precision="FP32" names="bert.encoder.layer.1.attention.self.query.weight">
					<dim>1024</dim>
					<dim>1024</dim>
				</port>
			</output>
		</layer>
		<layer id="143" name="545" type="MatMul" version="opset1">
			<data transpose_a="false" transpose_b="true" />
			<input>
				<port id="0" precision="FP32">
					<dim>1</dim>
					<dim>384</dim>
					<dim>1024</dim>
				</port>
				<port id="1" precision="FP32">
					<dim>1024</dim>
					<dim>1024</dim>
				</port>
			</input>
			<output>
				<port id="2" precision="FP32" names="545">
					<dim>1</dim>
					<dim>384</dim>
					<dim>1024</dim>
				</port>
			</output>
		</layer>
		<layer id="144" name="Constant_17155_compressed" type="Const" version="opset1">
			<data element_type="f16" shape="1, 1, 1024" offset="90855598" size="2048" />
			<output>
				<port id="0" precision="FP16">
					<dim>1</dim>
					<dim>1</dim>
					<dim>1024</dim>
				</port>
			</output>
		</layer>
		<layer id="145" name="Constant_17155" type="Convert" version="opset1">
			<data destination_type="f32" />
			<rt_info>
				<attribute name="decompression" version="0" />
			</rt_info>
			<input>
				<port id="0" precision="FP16">
					<dim>1</dim>
					<dim>1</dim>
					<dim>1024</dim>
				</port>
			</input>
			<output>
				<port id="1" precision="FP32">
					<dim>1</dim>
					<dim>1</dim>
					<dim>1024</dim>
				</port>
			</output>
		</layer>
		<layer id="146" name="546" type="Add" version="opset1">
			<data auto_broadcast="numpy" />
			<input>
				<port id="0" precision="FP32">
					<dim>1</dim>
					<dim>384</dim>
					<dim>1024</dim>
				</port>
				<port id="1" precision="FP32">
					<dim>1</dim>
					<dim>1</dim>
					<dim>1024</dim>
				</port>
			</input>
			<output>
				<port id="2" precision="FP32" names="546">
					<dim>1</dim>
					<dim>384</dim>
					<dim>1024</dim>
				</port>
			</output>
		</layer>
		<layer id="147" name="565" type="Const" version="opset1">
			<data element_type="i64" shape="4" offset="65665056" size="32" />
			<output>
				<port id="0" precision="I64">
					<dim>4</dim>
				</port>
			</output>
		</layer>
		<layer id="148" name="566" type="Reshape" version="opset1">
			<data special_zero="true" />
			<input>
				<port id="0" precision="FP32">
					<dim>1</dim>
					<dim>384</dim>
					<dim>1024</dim>
				</port>
				<port id="1" precision="I64">
					<dim>4</dim>
				</port>
			</input>
			<output>
				<port id="2" precision="FP32" names="566">
					<dim>1</dim>
					<dim>384</dim>
					<dim>16</dim>
					<dim>64</dim>
				</port>
			</output>
		</layer>
		<layer id="149" name="Constant_682" type="Const" version="opset1">
			<data element_type="i64" shape="4" offset="65665088" size="32" />
			<output>
				<port id="0" precision="I64">
					<dim>4</dim>
				</port>
			</output>
		</layer>
		<layer id="150" name="567" type="Transpose" version="opset1">
			<input>
				<port id="0" precision="FP32">
					<dim>1</dim>
					<dim>384</dim>
					<dim>16</dim>
					<dim>64</dim>
				</port>
				<port id="1" precision="I64">
					<dim>4</dim>
				</port>
			</input>
			<output>
				<port id="2" precision="FP32" names="567">
					<dim>1</dim>
					<dim>16</dim>
					<dim>384</dim>
					<dim>64</dim>
				</port>
			</output>
		</layer>
		<layer id="151" name="bert.encoder.layer.1.attention.self.key.weight_compressed" type="Const" version="opset1">
			<data element_type="f16" shape="1024, 1024" offset="90857646" size="2097152" />
			<output>
				<port id="0" precision="FP16">
					<dim>1024</dim>
					<dim>1024</dim>
				</port>
			</output>
		</layer>
		<layer id="152" name="bert.encoder.layer.1.attention.self.key.weight" type="Convert" version="opset1">
			<data destination_type="f32" />
			<rt_info>
				<attribute name="decompression" version="0" />
			</rt_info>
			<input>
				<port id="0" precision="FP16">
					<dim>1024</dim>
					<dim>1024</dim>
				</port>
			</input>
			<output>
				<port id="1" precision="FP32" names="bert.encoder.layer.1.attention.self.key.weight">
					<dim>1024</dim>
					<dim>1024</dim>
				</port>
			</output>
		</layer>
		<layer id="153" name="548" type="MatMul" version="opset1">
			<data transpose_a="false" transpose_b="true" />
			<input>
				<port id="0" precision="FP32">
					<dim>1</dim>
					<dim>384</dim>
					<dim>1024</dim>
				</port>
				<port id="1" precision="FP32">
					<dim>1024</dim>
					<dim>1024</dim>
				</port>
			</input>
			<output>
				<port id="2" precision="FP32" names="548">
					<dim>1</dim>
					<dim>384</dim>
					<dim>1024</dim>
				</port>
			</output>
		</layer>
		<layer id="154" name="Constant_17156_compressed" type="Const" version="opset1">
			<data element_type="f16" shape="1, 1, 1024" offset="92954798" size="2048" />
			<output>
				<port id="0" precision="FP16">
					<dim>1</dim>
					<dim>1</dim>
					<dim>1024</dim>
				</port>
			</output>
		</layer>
		<layer id="155" name="Constant_17156" type="Convert" version="opset1">
			<data destination_type="f32" />
			<rt_info>
				<attribute name="decompression" version="0" />
			</rt_info>
			<input>
				<port id="0" precision="FP16">
					<dim>1</dim>
					<dim>1</dim>
					<dim>1024</dim>
				</port>
			</input>
			<output>
				<port id="1" precision="FP32">
					<dim>1</dim>
					<dim>1</dim>
					<dim>1024</dim>
				</port>
			</output>
		</layer>
		<layer id="156" name="549" type="Add" version="opset1">
			<data auto_broadcast="numpy" />
			<input>
				<port id="0" precision="FP32">
					<dim>1</dim>
					<dim>384</dim>
					<dim>1024</dim>
				</port>
				<port id="1" precision="FP32">
					<dim>1</dim>
					<dim>1</dim>
					<dim>1024</dim>
				</port>
			</input>
			<output>
				<port id="2" precision="FP32" names="549">
					<dim>1</dim>
					<dim>384</dim>
					<dim>1024</dim>
				</port>
			</output>
		</layer>
		<layer id="157" name="580" type="Const" version="opset1">
			<data element_type="i64" shape="4" offset="65665056" size="32" />
			<output>
				<port id="0" precision="I64">
					<dim>4</dim>
				</port>
			</output>
		</layer>
		<layer id="158" name="581" type="Reshape" version="opset1">
			<data special_zero="true" />
			<input>
				<port id="0" precision="FP32">
					<dim>1</dim>
					<dim>384</dim>
					<dim>1024</dim>
				</port>
				<port id="1" precision="I64">
					<dim>4</dim>
				</port>
			</input>
			<output>
				<port id="2" precision="FP32" names="581">
					<dim>1</dim>
					<dim>384</dim>
					<dim>16</dim>
					<dim>64</dim>
				</port>
			</output>
		</layer>
		<layer id="159" name="Constant_730" type="Const" version="opset1">
			<data element_type="i64" shape="4" offset="67764320" size="32" />
			<output>
				<port id="0" precision="I64">
					<dim>4</dim>
				</port>
			</output>
		</layer>
		<layer id="160" name="597" type="Transpose" version="opset1">
			<input>
				<port id="0" precision="FP32">
					<dim>1</dim>
					<dim>384</dim>
					<dim>16</dim>
					<dim>64</dim>
				</port>
				<port id="1" precision="I64">
					<dim>4</dim>
				</port>
			</input>
			<output>
				<port id="2" precision="FP32" names="597">
					<dim>1</dim>
					<dim>16</dim>
					<dim>64</dim>
					<dim>384</dim>
				</port>
			</output>
		</layer>
		<layer id="161" name="Constant_17157_compressed" type="Const" version="opset1">
			<data element_type="f16" shape="1, 1, 1, 1" offset="67764352" size="2" />
			<output>
				<port id="0" precision="FP16">
					<dim>1</dim>
					<dim>1</dim>
					<dim>1</dim>
					<dim>1</dim>
				</port>
			</output>
		</layer>
		<layer id="162" name="Constant_17157" type="Convert" version="opset1">
			<data destination_type="f32" />
			<rt_info>
				<attribute name="decompression" version="0" />
			</rt_info>
			<input>
				<port id="0" precision="FP16">
					<dim>1</dim>
					<dim>1</dim>
					<dim>1</dim>
					<dim>1</dim>
				</port>
			</input>
			<output>
				<port id="1" precision="FP32">
					<dim>1</dim>
					<dim>1</dim>
					<dim>1</dim>
					<dim>1</dim>
				</port>
			</output>
		</layer>
		<layer id="163" name="Multiply_16849" type="Multiply" version="opset1">
			<data auto_broadcast="numpy" />
			<input>
				<port id="0" precision="FP32">
					<dim>1</dim>
					<dim>16</dim>
					<dim>64</dim>
					<dim>384</dim>
				</port>
				<port id="1" precision="FP32">
					<dim>1</dim>
					<dim>1</dim>
					<dim>1</dim>
					<dim>1</dim>
				</port>
			</input>
			<output>
				<port id="2" precision="FP32">
					<dim>1</dim>
					<dim>16</dim>
					<dim>64</dim>
					<dim>384</dim>
				</port>
			</output>
		</layer>
		<layer id="164" name="600" type="MatMul" version="opset1">
			<data transpose_a="false" transpose_b="false" />
			<input>
				<port id="0" precision="FP32">
					<dim>1</dim>
					<dim>16</dim>
					<dim>384</dim>
					<dim>64</dim>
				</port>
				<port id="1" precision="FP32">
					<dim>1</dim>
					<dim>16</dim>
					<dim>64</dim>
					<dim>384</dim>
				</port>
			</input>
			<output>
				<port id="2" precision="FP32" names="600">
					<dim>1</dim>
					<dim>16</dim>
					<dim>384</dim>
					<dim>384</dim>
				</port>
			</output>
		</layer>
		<layer id="165" name="601" type="Add" version="opset1">
			<data auto_broadcast="numpy" />
			<input>
				<port id="0" precision="FP32">
					<dim>1</dim>
					<dim>16</dim>
					<dim>384</dim>
					<dim>384</dim>
				</port>
				<port id="1" precision="FP32">
					<dim>1</dim>
					<dim>1</dim>
					<dim>1</dim>
					<dim>384</dim>
				</port>
			</input>
			<output>
				<port id="2" precision="FP32" names="601">
					<dim>1</dim>
					<dim>16</dim>
					<dim>384</dim>
					<dim>384</dim>
				</port>
			</output>
		</layer>
		<layer id="166" name="ShapeOf_736" type="ShapeOf" version="opset1">
			<input>
				<port id="0" precision="FP32">
					<dim>1</dim>
					<dim>16</dim>
					<dim>384</dim>
					<dim>384</dim>
				</port>
			</input>
			<output>
				<port id="1" precision="I64">
					<dim>4</dim>
				</port>
			</output>
		</layer>
		<layer id="167" name="Constant_739" type="Const" version="opset1">
			<data element_type="i64" shape="1" offset="62509056" size="8" />
			<output>
				<port id="0" precision="I64">
					<dim>1</dim>
				</port>
			</output>
		</layer>
		<layer id="168" name="Constant_738" type="Const" version="opset1">
			<data element_type="i64" shape="1" offset="67764366" size="8" />
			<output>
				<port id="0" precision="I64">
					<dim>1</dim>
				</port>
			</output>
		</layer>
		<layer id="169" name="Constant_740" type="Const" version="opset1">
			<data element_type="i64" shape="1" offset="63557640" size="8" />
			<output>
				<port id="0" precision="I64">
					<dim>1</dim>
				</port>
			</output>
		</layer>
		<layer id="170" name="StridedSlice_741" type="StridedSlice" version="opset1">
			<data begin_mask="0" end_mask="0" new_axis_mask="" shrink_axis_mask="" ellipsis_mask="" />
			<input>
				<port id="0" precision="I64">
					<dim>4</dim>
				</port>
				<port id="1" precision="I64">
					<dim>1</dim>
				</port>
				<port id="2" precision="I64">
					<dim>1</dim>
				</port>
				<port id="3" precision="I64">
					<dim>1</dim>
				</port>
			</input>
			<output>
				<port id="4" precision="I64">
					<dim>3</dim>
				</port>
			</output>
		</layer>
		<layer id="171" name="Constant_742" type="Const" version="opset1">
			<data element_type="i64" shape="" offset="62509056" size="8" />
			<output>
				<port id="0" precision="I64" />
			</output>
		</layer>
		<layer id="172" name="ReduceProd_743" type="ReduceProd" version="opset1">
			<data keep_dims="true" />
			<input>
				<port id="0" precision="I64">
					<dim>3</dim>
				</port>
				<port id="1" precision="I64" />
			</input>
			<output>
				<port id="2" precision="I64">
					<dim>1</dim>
				</port>
			</output>
		</layer>
		<layer id="173" name="Constant_744" type="Const" version="opset1">
			<data element_type="i64" shape="1" offset="63561752" size="8" />
			<output>
				<port id="0" precision="I64">
					<dim>1</dim>
				</port>
			</output>
		</layer>
		<layer id="174" name="Concat_745" type="Concat" version="opset1">
			<data axis="0" />
			<input>
				<port id="0" precision="I64">
					<dim>1</dim>
				</port>
				<port id="1" precision="I64">
					<dim>1</dim>
				</port>
			</input>
			<output>
				<port id="2" precision="I64">
					<dim>2</dim>
				</port>
			</output>
		</layer>
		<layer id="175" name="Reshape_746" type="Reshape" version="opset1">
			<data special_zero="true" />
			<input>
				<port id="0" precision="FP32">
					<dim>1</dim>
					<dim>16</dim>
					<dim>384</dim>
					<dim>384</dim>
				</port>
				<port id="1" precision="I64">
					<dim>2</dim>
				</port>
			</input>
			<output>
				<port id="2" precision="FP32">
					<dim>6144</dim>
					<dim>384</dim>
				</port>
			</output>
		</layer>
		<layer id="176" name="Softmax_777" type="SoftMax" version="opset8">
			<data axis="1" />
			<input>
				<port id="0" precision="FP32">
					<dim>6144</dim>
					<dim>384</dim>
				</port>
			</input>
			<output>
				<port id="1" precision="FP32">
					<dim>6144</dim>
					<dim>384</dim>
				</port>
			</output>
		</layer>
		<layer id="177" name="602" type="Reshape" version="opset1">
			<data special_zero="false" />
			<input>
				<port id="0" precision="FP32">
					<dim>6144</dim>
					<dim>384</dim>
				</port>
				<port id="1" precision="I64">
					<dim>4</dim>
				</port>
			</input>
			<output>
				<port id="2" precision="FP32" names="602">
					<dim>1</dim>
					<dim>16</dim>
					<dim>384</dim>
					<dim>384</dim>
				</port>
			</output>
		</layer>
		<layer id="178" name="bert.encoder.layer.1.attention.self.value.weight_compressed" type="Const" version="opset1">
			<data element_type="f16" shape="1024, 1024" offset="92956846" size="2097152" />
			<output>
				<port id="0" precision="FP16">
					<dim>1024</dim>
					<dim>1024</dim>
				</port>
			</output>
		</layer>
		<layer id="179" name="bert.encoder.layer.1.attention.self.value.weight" type="Convert" version="opset1">
			<data destination_type="f32" />
			<rt_info>
				<attribute name="decompression" version="0" />
			</rt_info>
			<input>
				<port id="0" precision="FP16">
					<dim>1024</dim>
					<dim>1024</dim>
				</port>
			</input>
			<output>
				<port id="1" precision="FP32" names="bert.encoder.layer.1.attention.self.value.weight">
					<dim>1024</dim>
					<dim>1024</dim>
				</port>
			</output>
		</layer>
		<layer id="180" name="551" type="MatMul" version="opset1">
			<data transpose_a="false" transpose_b="true" />
			<input>
				<port id="0" precision="FP32">
					<dim>1</dim>
					<dim>384</dim>
					<dim>1024</dim>
				</port>
				<port id="1" precision="FP32">
					<dim>1024</dim>
					<dim>1024</dim>
				</port>
			</input>
			<output>
				<port id="2" precision="FP32" names="551">
					<dim>1</dim>
					<dim>384</dim>
					<dim>1024</dim>
				</port>
			</output>
		</layer>
		<layer id="181" name="Constant_17158_compressed" type="Const" version="opset1">
			<data element_type="f16" shape="1, 1, 1024" offset="95053998" size="2048" />
			<output>
				<port id="0" precision="FP16">
					<dim>1</dim>
					<dim>1</dim>
					<dim>1024</dim>
				</port>
			</output>
		</layer>
		<layer id="182" name="Constant_17158" type="Convert" version="opset1">
			<data destination_type="f32" />
			<rt_info>
				<attribute name="decompression" version="0" />
			</rt_info>
			<input>
				<port id="0" precision="FP16">
					<dim>1</dim>
					<dim>1</dim>
					<dim>1024</dim>
				</port>
			</input>
			<output>
				<port id="1" precision="FP32">
					<dim>1</dim>
					<dim>1</dim>
					<dim>1024</dim>
				</port>
			</output>
		</layer>
		<layer id="183" name="552" type="Add" version="opset1">
			<data auto_broadcast="numpy" />
			<input>
				<port id="0" precision="FP32">
					<dim>1</dim>
					<dim>384</dim>
					<dim>1024</dim>
				</port>
				<port id="1" precision="FP32">
					<dim>1</dim>
					<dim>1</dim>
					<dim>1024</dim>
				</port>
			</input>
			<output>
				<port id="2" precision="FP32" names="552">
					<dim>1</dim>
					<dim>384</dim>
					<dim>1024</dim>
				</port>
			</output>
		</layer>
		<layer id="184" name="594" type="Const" version="opset1">
			<data element_type="i64" shape="4" offset="65665056" size="32" />
			<output>
				<port id="0" precision="I64">
					<dim>4</dim>
				</port>
			</output>
		</layer>
		<layer id="185" name="595" type="Reshape" version="opset1">
			<data special_zero="true" />
			<input>
				<port id="0" precision="FP32">
					<dim>1</dim>
					<dim>384</dim>
					<dim>1024</dim>
				</port>
				<port id="1" precision="I64">
					<dim>4</dim>
				</port>
			</input>
			<output>
				<port id="2" precision="FP32" names="595">
					<dim>1</dim>
					<dim>384</dim>
					<dim>16</dim>
					<dim>64</dim>
				</port>
			</output>
		</layer>
		<layer id="186" name="Constant_728" type="Const" version="opset1">
			<data element_type="i64" shape="4" offset="65665088" size="32" />
			<output>
				<port id="0" precision="I64">
					<dim>4</dim>
				</port>
			</output>
		</layer>
		<layer id="187" name="596" type="Transpose" version="opset1">
			<input>
				<port id="0" precision="FP32">
					<dim>1</dim>
					<dim>384</dim>
					<dim>16</dim>
					<dim>64</dim>
				</port>
				<port id="1" precision="I64">
					<dim>4</dim>
				</port>
			</input>
			<output>
				<port id="2" precision="FP32" names="596">
					<dim>1</dim>
					<dim>16</dim>
					<dim>384</dim>
					<dim>64</dim>
				</port>
			</output>
		</layer>
		<layer id="188" name="603" type="MatMul" version="opset1">
			<data transpose_a="false" transpose_b="false" />
			<input>
				<port id="0" precision="FP32">
					<dim>1</dim>
					<dim>16</dim>
					<dim>384</dim>
					<dim>384</dim>
				</port>
				<port id="1" precision="FP32">
					<dim>1</dim>
					<dim>16</dim>
					<dim>384</dim>
					<dim>64</dim>
				</port>
			</input>
			<output>
				<port id="2" precision="FP32" names="603">
					<dim>1</dim>
					<dim>16</dim>
					<dim>384</dim>
					<dim>64</dim>
				</port>
			</output>
		</layer>
		<layer id="189" name="Constant_783" type="Const" version="opset1">
			<data element_type="i64" shape="4" offset="65665088" size="32" />
			<output>
				<port id="0" precision="I64">
					<dim>4</dim>
				</port>
			</output>
		</layer>
		<layer id="190" name="604" type="Transpose" version="opset1">
			<input>
				<port id="0" precision="FP32">
					<dim>1</dim>
					<dim>16</dim>
					<dim>384</dim>
					<dim>64</dim>
				</port>
				<port id="1" precision="I64">
					<dim>4</dim>
				</port>
			</input>
			<output>
				<port id="2" precision="FP32" names="604">
					<dim>1</dim>
					<dim>384</dim>
					<dim>16</dim>
					<dim>64</dim>
				</port>
			</output>
		</layer>
		<layer id="191" name="615" type="Const" version="opset1">
			<data element_type="i64" shape="3" offset="69863574" size="24" />
			<output>
				<port id="0" precision="I64">
					<dim>3</dim>
				</port>
			</output>
		</layer>
		<layer id="192" name="616" type="Reshape" version="opset1">
			<data special_zero="true" />
			<input>
				<port id="0" precision="FP32">
					<dim>1</dim>
					<dim>384</dim>
					<dim>16</dim>
					<dim>64</dim>
				</port>
				<port id="1" precision="I64">
					<dim>3</dim>
				</port>
			</input>
			<output>
				<port id="2" precision="FP32" names="616">
					<dim>1</dim>
					<dim>384</dim>
					<dim>1024</dim>
				</port>
			</output>
		</layer>
		<layer id="193" name="bert.encoder.layer.1.attention.output.dense.weight_compressed" type="Const" version="opset1">
			<data element_type="f16" shape="1024, 1024" offset="95056046" size="2097152" />
			<output>
				<port id="0" precision="FP16">
					<dim>1024</dim>
					<dim>1024</dim>
				</port>
			</output>
		</layer>
		<layer id="194" name="bert.encoder.layer.1.attention.output.dense.weight" type="Convert" version="opset1">
			<data destination_type="f32" />
			<rt_info>
				<attribute name="decompression" version="0" />
			</rt_info>
			<input>
				<port id="0" precision="FP16">
					<dim>1024</dim>
					<dim>1024</dim>
				</port>
			</input>
			<output>
				<port id="1" precision="FP32" names="bert.encoder.layer.1.attention.output.dense.weight">
					<dim>1024</dim>
					<dim>1024</dim>
				</port>
			</output>
		</layer>
		<layer id="195" name="618" type="MatMul" version="opset1">
			<data transpose_a="false" transpose_b="true" />
			<input>
				<port id="0" precision="FP32">
					<dim>1</dim>
					<dim>384</dim>
					<dim>1024</dim>
				</port>
				<port id="1" precision="FP32">
					<dim>1024</dim>
					<dim>1024</dim>
				</port>
			</input>
			<output>
				<port id="2" precision="FP32" names="618">
					<dim>1</dim>
					<dim>384</dim>
					<dim>1024</dim>
				</port>
			</output>
		</layer>
		<layer id="196" name="Constant_17159_compressed" type="Const" version="opset1">
			<data element_type="f16" shape="1, 1, 1024" offset="97153198" size="2048" />
			<output>
				<port id="0" precision="FP16">
					<dim>1</dim>
					<dim>1</dim>
					<dim>1024</dim>
				</port>
			</output>
		</layer>
		<layer id="197" name="Constant_17159" type="Convert" version="opset1">
			<data destination_type="f32" />
			<rt_info>
				<attribute name="decompression" version="0" />
			</rt_info>
			<input>
				<port id="0" precision="FP16">
					<dim>1</dim>
					<dim>1</dim>
					<dim>1024</dim>
				</port>
			</input>
			<output>
				<port id="1" precision="FP32">
					<dim>1</dim>
					<dim>1</dim>
					<dim>1024</dim>
				</port>
			</output>
		</layer>
		<layer id="198" name="619" type="Add" version="opset1">
			<data auto_broadcast="numpy" />
			<input>
				<port id="0" precision="FP32">
					<dim>1</dim>
					<dim>384</dim>
					<dim>1024</dim>
				</port>
				<port id="1" precision="FP32">
					<dim>1</dim>
					<dim>1</dim>
					<dim>1024</dim>
				</port>
			</input>
			<output>
				<port id="2" precision="FP32" names="619">
					<dim>1</dim>
					<dim>384</dim>
					<dim>1024</dim>
				</port>
			</output>
		</layer>
		<layer id="199" name="620" type="Add" version="opset1">
			<data auto_broadcast="numpy" />
			<input>
				<port id="0" precision="FP32">
					<dim>1</dim>
					<dim>384</dim>
					<dim>1024</dim>
				</port>
				<port id="1" precision="FP32">
					<dim>1</dim>
					<dim>384</dim>
					<dim>1024</dim>
				</port>
			</input>
			<output>
				<port id="2" precision="FP32" names="620">
					<dim>1</dim>
					<dim>384</dim>
					<dim>1024</dim>
				</port>
			</output>
		</layer>
		<layer id="200" name="Constant_809" type="Const" version="opset1">
			<data element_type="i64" shape="1" offset="63561752" size="8" />
			<output>
				<port id="0" precision="I64">
					<dim>1</dim>
				</port>
			</output>
		</layer>
		<layer id="201" name="629" type="MVN" version="opset6">
			<data eps="9.999999960041972e-13" normalize_variance="true" eps_mode="INSIDE_SQRT" />
			<input>
				<port id="0" precision="FP32">
					<dim>1</dim>
					<dim>384</dim>
					<dim>1024</dim>
				</port>
				<port id="1" precision="I64">
					<dim>1</dim>
				</port>
			</input>
			<output>
				<port id="2" precision="FP32" names="629">
					<dim>1</dim>
					<dim>384</dim>
					<dim>1024</dim>
				</port>
			</output>
		</layer>
		<layer id="202" name="Constant_17160_compressed" type="Const" version="opset1">
			<data element_type="f16" shape="1, 1, 1024" offset="97155246" size="2048" />
			<output>
				<port id="0" precision="FP16">
					<dim>1</dim>
					<dim>1</dim>
					<dim>1024</dim>
				</port>
			</output>
		</layer>
		<layer id="203" name="Constant_17160" type="Convert" version="opset1">
			<data destination_type="f32" />
			<rt_info>
				<attribute name="decompression" version="0" />
			</rt_info>
			<input>
				<port id="0" precision="FP16">
					<dim>1</dim>
					<dim>1</dim>
					<dim>1024</dim>
				</port>
			</input>
			<output>
				<port id="1" precision="FP32">
					<dim>1</dim>
					<dim>1</dim>
					<dim>1024</dim>
				</port>
			</output>
		</layer>
		<layer id="204" name="630" type="Multiply" version="opset1">
			<data auto_broadcast="numpy" />
			<input>
				<port id="0" precision="FP32">
					<dim>1</dim>
					<dim>384</dim>
					<dim>1024</dim>
				</port>
				<port id="1" precision="FP32">
					<dim>1</dim>
					<dim>1</dim>
					<dim>1024</dim>
				</port>
			</input>
			<output>
				<port id="2" precision="FP32" names="630">
					<dim>1</dim>
					<dim>384</dim>
					<dim>1024</dim>
				</port>
			</output>
		</layer>
		<layer id="205" name="Constant_17161_compressed" type="Const" version="opset1">
			<data element_type="f16" shape="1, 1, 1024" offset="97157294" size="2048" />
			<output>
				<port id="0" precision="FP16">
					<dim>1</dim>
					<dim>1</dim>
					<dim>1024</dim>
				</port>
			</output>
		</layer>
		<layer id="206" name="Constant_17161" type="Convert" version="opset1">
			<data destination_type="f32" />
			<rt_info>
				<attribute name="decompression" version="0" />
			</rt_info>
			<input>
				<port id="0" precision="FP16">
					<dim>1</dim>
					<dim>1</dim>
					<dim>1024</dim>
				</port>
			</input>
			<output>
				<port id="1" precision="FP32">
					<dim>1</dim>
					<dim>1</dim>
					<dim>1024</dim>
				</port>
			</output>
		</layer>
		<layer id="207" name="631" type="Add" version="opset1">
			<data auto_broadcast="numpy" />
			<input>
				<port id="0" precision="FP32">
					<dim>1</dim>
					<dim>384</dim>
					<dim>1024</dim>
				</port>
				<port id="1" precision="FP32">
					<dim>1</dim>
					<dim>1</dim>
					<dim>1024</dim>
				</port>
			</input>
			<output>
				<port id="2" precision="FP32" names="631">
					<dim>1</dim>
					<dim>384</dim>
					<dim>1024</dim>
				</port>
			</output>
		</layer>
		<layer id="208" name="bert.encoder.layer.1.intermediate.dense.weight_compressed" type="Const" version="opset1">
			<data element_type="f16" shape="4096, 1024" offset="97159342" size="8388608" />
			<output>
				<port id="0" precision="FP16">
					<dim>4096</dim>
					<dim>1024</dim>
				</port>
			</output>
		</layer>
		<layer id="209" name="bert.encoder.layer.1.intermediate.dense.weight" type="Convert" version="opset1">
			<data destination_type="f32" />
			<rt_info>
				<attribute name="decompression" version="0" />
			</rt_info>
			<input>
				<port id="0" precision="FP16">
					<dim>4096</dim>
					<dim>1024</dim>
				</port>
			</input>
			<output>
				<port id="1" precision="FP32" names="bert.encoder.layer.1.intermediate.dense.weight">
					<dim>4096</dim>
					<dim>1024</dim>
				</port>
			</output>
		</layer>
		<layer id="210" name="633" type="MatMul" version="opset1">
			<data transpose_a="false" transpose_b="true" />
			<input>
				<port id="0" precision="FP32">
					<dim>1</dim>
					<dim>384</dim>
					<dim>1024</dim>
				</port>
				<port id="1" precision="FP32">
					<dim>4096</dim>
					<dim>1024</dim>
				</port>
			</input>
			<output>
				<port id="2" precision="FP32" names="633">
					<dim>1</dim>
					<dim>384</dim>
					<dim>4096</dim>
				</port>
			</output>
		</layer>
		<layer id="211" name="Constant_17162_compressed" type="Const" version="opset1">
			<data element_type="f16" shape="1, 1, 4096" offset="105547950" size="8192" />
			<output>
				<port id="0" precision="FP16">
					<dim>1</dim>
					<dim>1</dim>
					<dim>4096</dim>
				</port>
			</output>
		</layer>
		<layer id="212" name="Constant_17162" type="Convert" version="opset1">
			<data destination_type="f32" />
			<rt_info>
				<attribute name="decompression" version="0" />
			</rt_info>
			<input>
				<port id="0" precision="FP16">
					<dim>1</dim>
					<dim>1</dim>
					<dim>4096</dim>
				</port>
			</input>
			<output>
				<port id="1" precision="FP32">
					<dim>1</dim>
					<dim>1</dim>
					<dim>4096</dim>
				</port>
			</output>
		</layer>
		<layer id="213" name="634" type="Add" version="opset1">
			<data auto_broadcast="numpy" />
			<input>
				<port id="0" precision="FP32">
					<dim>1</dim>
					<dim>384</dim>
					<dim>4096</dim>
				</port>
				<port id="1" precision="FP32">
					<dim>1</dim>
					<dim>1</dim>
					<dim>4096</dim>
				</port>
			</input>
			<output>
				<port id="2" precision="FP32" names="634">
					<dim>1</dim>
					<dim>384</dim>
					<dim>4096</dim>
				</port>
			</output>
		</layer>
		<layer id="214" name="642" type="Gelu" version="opset7">
			<data approximation_mode="ERF" />
			<input>
				<port id="0" precision="FP32">
					<dim>1</dim>
					<dim>384</dim>
					<dim>4096</dim>
				</port>
			</input>
			<output>
				<port id="1" precision="FP32" names="642">
					<dim>1</dim>
					<dim>384</dim>
					<dim>4096</dim>
				</port>
			</output>
		</layer>
		<layer id="215" name="bert.encoder.layer.1.output.dense.weight_compressed" type="Const" version="opset1">
			<data element_type="f16" shape="1024, 4096" offset="105556142" size="8388608" />
			<output>
				<port id="0" precision="FP16">
					<dim>1024</dim>
					<dim>4096</dim>
				</port>
			</output>
		</layer>
		<layer id="216" name="bert.encoder.layer.1.output.dense.weight" type="Convert" version="opset1">
			<data destination_type="f32" />
			<rt_info>
				<attribute name="decompression" version="0" />
			</rt_info>
			<input>
				<port id="0" precision="FP16">
					<dim>1024</dim>
					<dim>4096</dim>
				</port>
			</input>
			<output>
				<port id="1" precision="FP32" names="bert.encoder.layer.1.output.dense.weight">
					<dim>1024</dim>
					<dim>4096</dim>
				</port>
			</output>
		</layer>
		<layer id="217" name="644" type="MatMul" version="opset1">
			<data transpose_a="false" transpose_b="true" />
			<input>
				<port id="0" precision="FP32">
					<dim>1</dim>
					<dim>384</dim>
					<dim>4096</dim>
				</port>
				<port id="1" precision="FP32">
					<dim>1024</dim>
					<dim>4096</dim>
				</port>
			</input>
			<output>
				<port id="2" precision="FP32" names="644">
					<dim>1</dim>
					<dim>384</dim>
					<dim>1024</dim>
				</port>
			</output>
		</layer>
		<layer id="218" name="Constant_17163_compressed" type="Const" version="opset1">
			<data element_type="f16" shape="1, 1, 1024" offset="113944750" size="2048" />
			<output>
				<port id="0" precision="FP16">
					<dim>1</dim>
					<dim>1</dim>
					<dim>1024</dim>
				</port>
			</output>
		</layer>
		<layer id="219" name="Constant_17163" type="Convert" version="opset1">
			<data destination_type="f32" />
			<rt_info>
				<attribute name="decompression" version="0" />
			</rt_info>
			<input>
				<port id="0" precision="FP16">
					<dim>1</dim>
					<dim>1</dim>
					<dim>1024</dim>
				</port>
			</input>
			<output>
				<port id="1" precision="FP32">
					<dim>1</dim>
					<dim>1</dim>
					<dim>1024</dim>
				</port>
			</output>
		</layer>
		<layer id="220" name="645" type="Add" version="opset1">
			<data auto_broadcast="numpy" />
			<input>
				<port id="0" precision="FP32">
					<dim>1</dim>
					<dim>384</dim>
					<dim>1024</dim>
				</port>
				<port id="1" precision="FP32">
					<dim>1</dim>
					<dim>1</dim>
					<dim>1024</dim>
				</port>
			</input>
			<output>
				<port id="2" precision="FP32" names="645">
					<dim>1</dim>
					<dim>384</dim>
					<dim>1024</dim>
				</port>
			</output>
		</layer>
		<layer id="221" name="646" type="Add" version="opset1">
			<data auto_broadcast="numpy" />
			<input>
				<port id="0" precision="FP32">
					<dim>1</dim>
					<dim>384</dim>
					<dim>1024</dim>
				</port>
				<port id="1" precision="FP32">
					<dim>1</dim>
					<dim>384</dim>
					<dim>1024</dim>
				</port>
			</input>
			<output>
				<port id="2" precision="FP32" names="646">
					<dim>1</dim>
					<dim>384</dim>
					<dim>1024</dim>
				</port>
			</output>
		</layer>
		<layer id="222" name="Constant_839" type="Const" version="opset1">
			<data element_type="i64" shape="1" offset="63561752" size="8" />
			<output>
				<port id="0" precision="I64">
					<dim>1</dim>
				</port>
			</output>
		</layer>
		<layer id="223" name="655" type="MVN" version="opset6">
			<data eps="9.999999960041972e-13" normalize_variance="true" eps_mode="INSIDE_SQRT" />
			<input>
				<port id="0" precision="FP32">
					<dim>1</dim>
					<dim>384</dim>
					<dim>1024</dim>
				</port>
				<port id="1" precision="I64">
					<dim>1</dim>
				</port>
			</input>
			<output>
				<port id="2" precision="FP32" names="655">
					<dim>1</dim>
					<dim>384</dim>
					<dim>1024</dim>
				</port>
			</output>
		</layer>
		<layer id="224" name="Constant_17164_compressed" type="Const" version="opset1">
			<data element_type="f16" shape="1, 1, 1024" offset="113946798" size="2048" />
			<output>
				<port id="0" precision="FP16">
					<dim>1</dim>
					<dim>1</dim>
					<dim>1024</dim>
				</port>
			</output>
		</layer>
		<layer id="225" name="Constant_17164" type="Convert" version="opset1">
			<data destination_type="f32" />
			<rt_info>
				<attribute name="decompression" version="0" />
			</rt_info>
			<input>
				<port id="0" precision="FP16">
					<dim>1</dim>
					<dim>1</dim>
					<dim>1024</dim>
				</port>
			</input>
			<output>
				<port id="1" precision="FP32">
					<dim>1</dim>
					<dim>1</dim>
					<dim>1024</dim>
				</port>
			</output>
		</layer>
		<layer id="226" name="656" type="Multiply" version="opset1">
			<data auto_broadcast="numpy" />
			<input>
				<port id="0" precision="FP32">
					<dim>1</dim>
					<dim>384</dim>
					<dim>1024</dim>
				</port>
				<port id="1" precision="FP32">
					<dim>1</dim>
					<dim>1</dim>
					<dim>1024</dim>
				</port>
			</input>
			<output>
				<port id="2" precision="FP32" names="656">
					<dim>1</dim>
					<dim>384</dim>
					<dim>1024</dim>
				</port>
			</output>
		</layer>
		<layer id="227" name="Constant_17165_compressed" type="Const" version="opset1">
			<data element_type="f16" shape="1, 1, 1024" offset="113948846" size="2048" />
			<output>
				<port id="0" precision="FP16">
					<dim>1</dim>
					<dim>1</dim>
					<dim>1024</dim>
				</port>
			</output>
		</layer>
		<layer id="228" name="Constant_17165" type="Convert" version="opset1">
			<data destination_type="f32" />
			<rt_info>
				<attribute name="decompression" version="0" />
			</rt_info>
			<input>
				<port id="0" precision="FP16">
					<dim>1</dim>
					<dim>1</dim>
					<dim>1024</dim>
				</port>
			</input>
			<output>
				<port id="1" precision="FP32">
					<dim>1</dim>
					<dim>1</dim>
					<dim>1024</dim>
				</port>
			</output>
		</layer>
		<layer id="229" name="657" type="Add" version="opset1">
			<data auto_broadcast="numpy" />
			<input>
				<port id="0" precision="FP32">
					<dim>1</dim>
					<dim>384</dim>
					<dim>1024</dim>
				</port>
				<port id="1" precision="FP32">
					<dim>1</dim>
					<dim>1</dim>
					<dim>1024</dim>
				</port>
			</input>
			<output>
				<port id="2" precision="FP32" names="657">
					<dim>1</dim>
					<dim>384</dim>
					<dim>1024</dim>
				</port>
			</output>
		</layer>
		<layer id="230" name="bert.encoder.layer.2.attention.self.query.weight_compressed" type="Const" version="opset1">
			<data element_type="f16" shape="1024, 1024" offset="113950894" size="2097152" />
			<output>
				<port id="0" precision="FP16">
					<dim>1024</dim>
					<dim>1024</dim>
				</port>
			</output>
		</layer>
		<layer id="231" name="bert.encoder.layer.2.attention.self.query.weight" type="Convert" version="opset1">
			<data destination_type="f32" />
			<rt_info>
				<attribute name="decompression" version="0" />
			</rt_info>
			<input>
				<port id="0" precision="FP16">
					<dim>1024</dim>
					<dim>1024</dim>
				</port>
			</input>
			<output>
				<port id="1" precision="FP32" names="bert.encoder.layer.2.attention.self.query.weight">
					<dim>1024</dim>
					<dim>1024</dim>
				</port>
			</output>
		</layer>
		<layer id="232" name="659" type="MatMul" version="opset1">
			<data transpose_a="false" transpose_b="true" />
			<input>
				<port id="0" precision="FP32">
					<dim>1</dim>
					<dim>384</dim>
					<dim>1024</dim>
				</port>
				<port id="1" precision="FP32">
					<dim>1024</dim>
					<dim>1024</dim>
				</port>
			</input>
			<output>
				<port id="2" precision="FP32" names="659">
					<dim>1</dim>
					<dim>384</dim>
					<dim>1024</dim>
				</port>
			</output>
		</layer>
		<layer id="233" name="Constant_17166_compressed" type="Const" version="opset1">
			<data element_type="f16" shape="1, 1, 1024" offset="116048046" size="2048" />
			<output>
				<port id="0" precision="FP16">
					<dim>1</dim>
					<dim>1</dim>
					<dim>1024</dim>
				</port>
			</output>
		</layer>
		<layer id="234" name="Constant_17166" type="Convert" version="opset1">
			<data destination_type="f32" />
			<rt_info>
				<attribute name="decompression" version="0" />
			</rt_info>
			<input>
				<port id="0" precision="FP16">
					<dim>1</dim>
					<dim>1</dim>
					<dim>1024</dim>
				</port>
			</input>
			<output>
				<port id="1" precision="FP32">
					<dim>1</dim>
					<dim>1</dim>
					<dim>1024</dim>
				</port>
			</output>
		</layer>
		<layer id="235" name="660" type="Add" version="opset1">
			<data auto_broadcast="numpy" />
			<input>
				<port id="0" precision="FP32">
					<dim>1</dim>
					<dim>384</dim>
					<dim>1024</dim>
				</port>
				<port id="1" precision="FP32">
					<dim>1</dim>
					<dim>1</dim>
					<dim>1024</dim>
				</port>
			</input>
			<output>
				<port id="2" precision="FP32" names="660">
					<dim>1</dim>
					<dim>384</dim>
					<dim>1024</dim>
				</port>
			</output>
		</layer>
		<layer id="236" name="679" type="Const" version="opset1">
			<data element_type="i64" shape="4" offset="65665056" size="32" />
			<output>
				<port id="0" precision="I64">
					<dim>4</dim>
				</port>
			</output>
		</layer>
		<layer id="237" name="680" type="Reshape" version="opset1">
			<data special_zero="true" />
			<input>
				<port id="0" precision="FP32">
					<dim>1</dim>
					<dim>384</dim>
					<dim>1024</dim>
				</port>
				<port id="1" precision="I64">
					<dim>4</dim>
				</port>
			</input>
			<output>
				<port id="2" precision="FP32" names="680">
					<dim>1</dim>
					<dim>384</dim>
					<dim>16</dim>
					<dim>64</dim>
				</port>
			</output>
		</layer>
		<layer id="238" name="Constant_886" type="Const" version="opset1">
			<data element_type="i64" shape="4" offset="65665088" size="32" />
			<output>
				<port id="0" precision="I64">
					<dim>4</dim>
				</port>
			</output>
		</layer>
		<layer id="239" name="681" type="Transpose" version="opset1">
			<input>
				<port id="0" precision="FP32">
					<dim>1</dim>
					<dim>384</dim>
					<dim>16</dim>
					<dim>64</dim>
				</port>
				<port id="1" precision="I64">
					<dim>4</dim>
				</port>
			</input>
			<output>
				<port id="2" precision="FP32" names="681">
					<dim>1</dim>
					<dim>16</dim>
					<dim>384</dim>
					<dim>64</dim>
				</port>
			</output>
		</layer>
		<layer id="240" name="bert.encoder.layer.2.attention.self.key.weight_compressed" type="Const" version="opset1">
			<data element_type="f16" shape="1024, 1024" offset="116050094" size="2097152" />
			<output>
				<port id="0" precision="FP16">
					<dim>1024</dim>
					<dim>1024</dim>
				</port>
			</output>
		</layer>
		<layer id="241" name="bert.encoder.layer.2.attention.self.key.weight" type="Convert" version="opset1">
			<data destination_type="f32" />
			<rt_info>
				<attribute name="decompression" version="0" />
			</rt_info>
			<input>
				<port id="0" precision="FP16">
					<dim>1024</dim>
					<dim>1024</dim>
				</port>
			</input>
			<output>
				<port id="1" precision="FP32" names="bert.encoder.layer.2.attention.self.key.weight">
					<dim>1024</dim>
					<dim>1024</dim>
				</port>
			</output>
		</layer>
		<layer id="242" name="662" type="MatMul" version="opset1">
			<data transpose_a="false" transpose_b="true" />
			<input>
				<port id="0" precision="FP32">
					<dim>1</dim>
					<dim>384</dim>
					<dim>1024</dim>
				</port>
				<port id="1" precision="FP32">
					<dim>1024</dim>
					<dim>1024</dim>
				</port>
			</input>
			<output>
				<port id="2" precision="FP32" names="662">
					<dim>1</dim>
					<dim>384</dim>
					<dim>1024</dim>
				</port>
			</output>
		</layer>
		<layer id="243" name="Constant_17167_compressed" type="Const" version="opset1">
			<data element_type="f16" shape="1, 1, 1024" offset="118147246" size="2048" />
			<output>
				<port id="0" precision="FP16">
					<dim>1</dim>
					<dim>1</dim>
					<dim>1024</dim>
				</port>
			</output>
		</layer>
		<layer id="244" name="Constant_17167" type="Convert" version="opset1">
			<data destination_type="f32" />
			<rt_info>
				<attribute name="decompression" version="0" />
			</rt_info>
			<input>
				<port id="0" precision="FP16">
					<dim>1</dim>
					<dim>1</dim>
					<dim>1024</dim>
				</port>
			</input>
			<output>
				<port id="1" precision="FP32">
					<dim>1</dim>
					<dim>1</dim>
					<dim>1024</dim>
				</port>
			</output>
		</layer>
		<layer id="245" name="663" type="Add" version="opset1">
			<data auto_broadcast="numpy" />
			<input>
				<port id="0" precision="FP32">
					<dim>1</dim>
					<dim>384</dim>
					<dim>1024</dim>
				</port>
				<port id="1" precision="FP32">
					<dim>1</dim>
					<dim>1</dim>
					<dim>1024</dim>
				</port>
			</input>
			<output>
				<port id="2" precision="FP32" names="663">
					<dim>1</dim>
					<dim>384</dim>
					<dim>1024</dim>
				</port>
			</output>
		</layer>
		<layer id="246" name="694" type="Const" version="opset1">
			<data element_type="i64" shape="4" offset="65665056" size="32" />
			<output>
				<port id="0" precision="I64">
					<dim>4</dim>
				</port>
			</output>
		</layer>
		<layer id="247" name="695" type="Reshape" version="opset1">
			<data special_zero="true" />
			<input>
				<port id="0" precision="FP32">
					<dim>1</dim>
					<dim>384</dim>
					<dim>1024</dim>
				</port>
				<port id="1" precision="I64">
					<dim>4</dim>
				</port>
			</input>
			<output>
				<port id="2" precision="FP32" names="695">
					<dim>1</dim>
					<dim>384</dim>
					<dim>16</dim>
					<dim>64</dim>
				</port>
			</output>
		</layer>
		<layer id="248" name="Constant_934" type="Const" version="opset1">
			<data element_type="i64" shape="4" offset="67764320" size="32" />
			<output>
				<port id="0" precision="I64">
					<dim>4</dim>
				</port>
			</output>
		</layer>
		<layer id="249" name="711" type="Transpose" version="opset1">
			<input>
				<port id="0" precision="FP32">
					<dim>1</dim>
					<dim>384</dim>
					<dim>16</dim>
					<dim>64</dim>
				</port>
				<port id="1" precision="I64">
					<dim>4</dim>
				</port>
			</input>
			<output>
				<port id="2" precision="FP32" names="711">
					<dim>1</dim>
					<dim>16</dim>
					<dim>64</dim>
					<dim>384</dim>
				</port>
			</output>
		</layer>
		<layer id="250" name="Constant_17168_compressed" type="Const" version="opset1">
			<data element_type="f16" shape="1, 1, 1, 1" offset="67764352" size="2" />
			<output>
				<port id="0" precision="FP16">
					<dim>1</dim>
					<dim>1</dim>
					<dim>1</dim>
					<dim>1</dim>
				</port>
			</output>
		</layer>
		<layer id="251" name="Constant_17168" type="Convert" version="opset1">
			<data destination_type="f32" />
			<rt_info>
				<attribute name="decompression" version="0" />
			</rt_info>
			<input>
				<port id="0" precision="FP16">
					<dim>1</dim>
					<dim>1</dim>
					<dim>1</dim>
					<dim>1</dim>
				</port>
			</input>
			<output>
				<port id="1" precision="FP32">
					<dim>1</dim>
					<dim>1</dim>
					<dim>1</dim>
					<dim>1</dim>
				</port>
			</output>
		</layer>
		<layer id="252" name="Multiply_16851" type="Multiply" version="opset1">
			<data auto_broadcast="numpy" />
			<input>
				<port id="0" precision="FP32">
					<dim>1</dim>
					<dim>16</dim>
					<dim>64</dim>
					<dim>384</dim>
				</port>
				<port id="1" precision="FP32">
					<dim>1</dim>
					<dim>1</dim>
					<dim>1</dim>
					<dim>1</dim>
				</port>
			</input>
			<output>
				<port id="2" precision="FP32">
					<dim>1</dim>
					<dim>16</dim>
					<dim>64</dim>
					<dim>384</dim>
				</port>
			</output>
		</layer>
		<layer id="253" name="714" type="MatMul" version="opset1">
			<data transpose_a="false" transpose_b="false" />
			<input>
				<port id="0" precision="FP32">
					<dim>1</dim>
					<dim>16</dim>
					<dim>384</dim>
					<dim>64</dim>
				</port>
				<port id="1" precision="FP32">
					<dim>1</dim>
					<dim>16</dim>
					<dim>64</dim>
					<dim>384</dim>
				</port>
			</input>
			<output>
				<port id="2" precision="FP32" names="714">
					<dim>1</dim>
					<dim>16</dim>
					<dim>384</dim>
					<dim>384</dim>
				</port>
			</output>
		</layer>
		<layer id="254" name="715" type="Add" version="opset1">
			<data auto_broadcast="numpy" />
			<input>
				<port id="0" precision="FP32">
					<dim>1</dim>
					<dim>16</dim>
					<dim>384</dim>
					<dim>384</dim>
				</port>
				<port id="1" precision="FP32">
					<dim>1</dim>
					<dim>1</dim>
					<dim>1</dim>
					<dim>384</dim>
				</port>
			</input>
			<output>
				<port id="2" precision="FP32" names="715">
					<dim>1</dim>
					<dim>16</dim>
					<dim>384</dim>
					<dim>384</dim>
				</port>
			</output>
		</layer>
		<layer id="255" name="ShapeOf_940" type="ShapeOf" version="opset1">
			<input>
				<port id="0" precision="FP32">
					<dim>1</dim>
					<dim>16</dim>
					<dim>384</dim>
					<dim>384</dim>
				</port>
			</input>
			<output>
				<port id="1" precision="I64">
					<dim>4</dim>
				</port>
			</output>
		</layer>
		<layer id="256" name="Constant_943" type="Const" version="opset1">
			<data element_type="i64" shape="1" offset="62509056" size="8" />
			<output>
				<port id="0" precision="I64">
					<dim>1</dim>
				</port>
			</output>
		</layer>
		<layer id="257" name="Constant_942" type="Const" version="opset1">
			<data element_type="i64" shape="1" offset="67764366" size="8" />
			<output>
				<port id="0" precision="I64">
					<dim>1</dim>
				</port>
			</output>
		</layer>
		<layer id="258" name="Constant_944" type="Const" version="opset1">
			<data element_type="i64" shape="1" offset="63557640" size="8" />
			<output>
				<port id="0" precision="I64">
					<dim>1</dim>
				</port>
			</output>
		</layer>
		<layer id="259" name="StridedSlice_945" type="StridedSlice" version="opset1">
			<data begin_mask="0" end_mask="0" new_axis_mask="" shrink_axis_mask="" ellipsis_mask="" />
			<input>
				<port id="0" precision="I64">
					<dim>4</dim>
				</port>
				<port id="1" precision="I64">
					<dim>1</dim>
				</port>
				<port id="2" precision="I64">
					<dim>1</dim>
				</port>
				<port id="3" precision="I64">
					<dim>1</dim>
				</port>
			</input>
			<output>
				<port id="4" precision="I64">
					<dim>3</dim>
				</port>
			</output>
		</layer>
		<layer id="260" name="Constant_946" type="Const" version="opset1">
			<data element_type="i64" shape="" offset="62509056" size="8" />
			<output>
				<port id="0" precision="I64" />
			</output>
		</layer>
		<layer id="261" name="ReduceProd_947" type="ReduceProd" version="opset1">
			<data keep_dims="true" />
			<input>
				<port id="0" precision="I64">
					<dim>3</dim>
				</port>
				<port id="1" precision="I64" />
			</input>
			<output>
				<port id="2" precision="I64">
					<dim>1</dim>
				</port>
			</output>
		</layer>
		<layer id="262" name="Constant_948" type="Const" version="opset1">
			<data element_type="i64" shape="1" offset="63561752" size="8" />
			<output>
				<port id="0" precision="I64">
					<dim>1</dim>
				</port>
			</output>
		</layer>
		<layer id="263" name="Concat_949" type="Concat" version="opset1">
			<data axis="0" />
			<input>
				<port id="0" precision="I64">
					<dim>1</dim>
				</port>
				<port id="1" precision="I64">
					<dim>1</dim>
				</port>
			</input>
			<output>
				<port id="2" precision="I64">
					<dim>2</dim>
				</port>
			</output>
		</layer>
		<layer id="264" name="Reshape_950" type="Reshape" version="opset1">
			<data special_zero="true" />
			<input>
				<port id="0" precision="FP32">
					<dim>1</dim>
					<dim>16</dim>
					<dim>384</dim>
					<dim>384</dim>
				</port>
				<port id="1" precision="I64">
					<dim>2</dim>
				</port>
			</input>
			<output>
				<port id="2" precision="FP32">
					<dim>6144</dim>
					<dim>384</dim>
				</port>
			</output>
		</layer>
		<layer id="265" name="Softmax_981" type="SoftMax" version="opset8">
			<data axis="1" />
			<input>
				<port id="0" precision="FP32">
					<dim>6144</dim>
					<dim>384</dim>
				</port>
			</input>
			<output>
				<port id="1" precision="FP32">
					<dim>6144</dim>
					<dim>384</dim>
				</port>
			</output>
		</layer>
		<layer id="266" name="716" type="Reshape" version="opset1">
			<data special_zero="false" />
			<input>
				<port id="0" precision="FP32">
					<dim>6144</dim>
					<dim>384</dim>
				</port>
				<port id="1" precision="I64">
					<dim>4</dim>
				</port>
			</input>
			<output>
				<port id="2" precision="FP32" names="716">
					<dim>1</dim>
					<dim>16</dim>
					<dim>384</dim>
					<dim>384</dim>
				</port>
			</output>
		</layer>
		<layer id="267" name="bert.encoder.layer.2.attention.self.value.weight_compressed" type="Const" version="opset1">
			<data element_type="f16" shape="1024, 1024" offset="118149294" size="2097152" />
			<output>
				<port id="0" precision="FP16">
					<dim>1024</dim>
					<dim>1024</dim>
				</port>
			</output>
		</layer>
		<layer id="268" name="bert.encoder.layer.2.attention.self.value.weight" type="Convert" version="opset1">
			<data destination_type="f32" />
			<rt_info>
				<attribute name="decompression" version="0" />
			</rt_info>
			<input>
				<port id="0" precision="FP16">
					<dim>1024</dim>
					<dim>1024</dim>
				</port>
			</input>
			<output>
				<port id="1" precision="FP32" names="bert.encoder.layer.2.attention.self.value.weight">
					<dim>1024</dim>
					<dim>1024</dim>
				</port>
			</output>
		</layer>
		<layer id="269" name="665" type="MatMul" version="opset1">
			<data transpose_a="false" transpose_b="true" />
			<input>
				<port id="0" precision="FP32">
					<dim>1</dim>
					<dim>384</dim>
					<dim>1024</dim>
				</port>
				<port id="1" precision="FP32">
					<dim>1024</dim>
					<dim>1024</dim>
				</port>
			</input>
			<output>
				<port id="2" precision="FP32" names="665">
					<dim>1</dim>
					<dim>384</dim>
					<dim>1024</dim>
				</port>
			</output>
		</layer>
		<layer id="270" name="Constant_17169_compressed" type="Const" version="opset1">
			<data element_type="f16" shape="1, 1, 1024" offset="120246446" size="2048" />
			<output>
				<port id="0" precision="FP16">
					<dim>1</dim>
					<dim>1</dim>
					<dim>1024</dim>
				</port>
			</output>
		</layer>
		<layer id="271" name="Constant_17169" type="Convert" version="opset1">
			<data destination_type="f32" />
			<rt_info>
				<attribute name="decompression" version="0" />
			</rt_info>
			<input>
				<port id="0" precision="FP16">
					<dim>1</dim>
					<dim>1</dim>
					<dim>1024</dim>
				</port>
			</input>
			<output>
				<port id="1" precision="FP32">
					<dim>1</dim>
					<dim>1</dim>
					<dim>1024</dim>
				</port>
			</output>
		</layer>
		<layer id="272" name="666" type="Add" version="opset1">
			<data auto_broadcast="numpy" />
			<input>
				<port id="0" precision="FP32">
					<dim>1</dim>
					<dim>384</dim>
					<dim>1024</dim>
				</port>
				<port id="1" precision="FP32">
					<dim>1</dim>
					<dim>1</dim>
					<dim>1024</dim>
				</port>
			</input>
			<output>
				<port id="2" precision="FP32" names="666">
					<dim>1</dim>
					<dim>384</dim>
					<dim>1024</dim>
				</port>
			</output>
		</layer>
		<layer id="273" name="708" type="Const" version="opset1">
			<data element_type="i64" shape="4" offset="65665056" size="32" />
			<output>
				<port id="0" precision="I64">
					<dim>4</dim>
				</port>
			</output>
		</layer>
		<layer id="274" name="709" type="Reshape" version="opset1">
			<data special_zero="true" />
			<input>
				<port id="0" precision="FP32">
					<dim>1</dim>
					<dim>384</dim>
					<dim>1024</dim>
				</port>
				<port id="1" precision="I64">
					<dim>4</dim>
				</port>
			</input>
			<output>
				<port id="2" precision="FP32" names="709">
					<dim>1</dim>
					<dim>384</dim>
					<dim>16</dim>
					<dim>64</dim>
				</port>
			</output>
		</layer>
		<layer id="275" name="Constant_932" type="Const" version="opset1">
			<data element_type="i64" shape="4" offset="65665088" size="32" />
			<output>
				<port id="0" precision="I64">
					<dim>4</dim>
				</port>
			</output>
		</layer>
		<layer id="276" name="710" type="Transpose" version="opset1">
			<input>
				<port id="0" precision="FP32">
					<dim>1</dim>
					<dim>384</dim>
					<dim>16</dim>
					<dim>64</dim>
				</port>
				<port id="1" precision="I64">
					<dim>4</dim>
				</port>
			</input>
			<output>
				<port id="2" precision="FP32" names="710">
					<dim>1</dim>
					<dim>16</dim>
					<dim>384</dim>
					<dim>64</dim>
				</port>
			</output>
		</layer>
		<layer id="277" name="717" type="MatMul" version="opset1">
			<data transpose_a="false" transpose_b="false" />
			<input>
				<port id="0" precision="FP32">
					<dim>1</dim>
					<dim>16</dim>
					<dim>384</dim>
					<dim>384</dim>
				</port>
				<port id="1" precision="FP32">
					<dim>1</dim>
					<dim>16</dim>
					<dim>384</dim>
					<dim>64</dim>
				</port>
			</input>
			<output>
				<port id="2" precision="FP32" names="717">
					<dim>1</dim>
					<dim>16</dim>
					<dim>384</dim>
					<dim>64</dim>
				</port>
			</output>
		</layer>
		<layer id="278" name="Constant_987" type="Const" version="opset1">
			<data element_type="i64" shape="4" offset="65665088" size="32" />
			<output>
				<port id="0" precision="I64">
					<dim>4</dim>
				</port>
			</output>
		</layer>
		<layer id="279" name="718" type="Transpose" version="opset1">
			<input>
				<port id="0" precision="FP32">
					<dim>1</dim>
					<dim>16</dim>
					<dim>384</dim>
					<dim>64</dim>
				</port>
				<port id="1" precision="I64">
					<dim>4</dim>
				</port>
			</input>
			<output>
				<port id="2" precision="FP32" names="718">
					<dim>1</dim>
					<dim>384</dim>
					<dim>16</dim>
					<dim>64</dim>
				</port>
			</output>
		</layer>
		<layer id="280" name="729" type="Const" version="opset1">
			<data element_type="i64" shape="3" offset="69863574" size="24" />
			<output>
				<port id="0" precision="I64">
					<dim>3</dim>
				</port>
			</output>
		</layer>
		<layer id="281" name="730" type="Reshape" version="opset1">
			<data special_zero="true" />
			<input>
				<port id="0" precision="FP32">
					<dim>1</dim>
					<dim>384</dim>
					<dim>16</dim>
					<dim>64</dim>
				</port>
				<port id="1" precision="I64">
					<dim>3</dim>
				</port>
			</input>
			<output>
				<port id="2" precision="FP32" names="730">
					<dim>1</dim>
					<dim>384</dim>
					<dim>1024</dim>
				</port>
			</output>
		</layer>
		<layer id="282" name="bert.encoder.layer.2.attention.output.dense.weight_compressed" type="Const" version="opset1">
			<data element_type="f16" shape="1024, 1024" offset="120248494" size="2097152" />
			<output>
				<port id="0" precision="FP16">
					<dim>1024</dim>
					<dim>1024</dim>
				</port>
			</output>
		</layer>
		<layer id="283" name="bert.encoder.layer.2.attention.output.dense.weight" type="Convert" version="opset1">
			<data destination_type="f32" />
			<rt_info>
				<attribute name="decompression" version="0" />
			</rt_info>
			<input>
				<port id="0" precision="FP16">
					<dim>1024</dim>
					<dim>1024</dim>
				</port>
			</input>
			<output>
				<port id="1" precision="FP32" names="bert.encoder.layer.2.attention.output.dense.weight">
					<dim>1024</dim>
					<dim>1024</dim>
				</port>
			</output>
		</layer>
		<layer id="284" name="732" type="MatMul" version="opset1">
			<data transpose_a="false" transpose_b="true" />
			<input>
				<port id="0" precision="FP32">
					<dim>1</dim>
					<dim>384</dim>
					<dim>1024</dim>
				</port>
				<port id="1" precision="FP32">
					<dim>1024</dim>
					<dim>1024</dim>
				</port>
			</input>
			<output>
				<port id="2" precision="FP32" names="732">
					<dim>1</dim>
					<dim>384</dim>
					<dim>1024</dim>
				</port>
			</output>
		</layer>
		<layer id="285" name="Constant_17170_compressed" type="Const" version="opset1">
			<data element_type="f16" shape="1, 1, 1024" offset="122345646" size="2048" />
			<output>
				<port id="0" precision="FP16">
					<dim>1</dim>
					<dim>1</dim>
					<dim>1024</dim>
				</port>
			</output>
		</layer>
		<layer id="286" name="Constant_17170" type="Convert" version="opset1">
			<data destination_type="f32" />
			<rt_info>
				<attribute name="decompression" version="0" />
			</rt_info>
			<input>
				<port id="0" precision="FP16">
					<dim>1</dim>
					<dim>1</dim>
					<dim>1024</dim>
				</port>
			</input>
			<output>
				<port id="1" precision="FP32">
					<dim>1</dim>
					<dim>1</dim>
					<dim>1024</dim>
				</port>
			</output>
		</layer>
		<layer id="287" name="733" type="Add" version="opset1">
			<data auto_broadcast="numpy" />
			<input>
				<port id="0" precision="FP32">
					<dim>1</dim>
					<dim>384</dim>
					<dim>1024</dim>
				</port>
				<port id="1" precision="FP32">
					<dim>1</dim>
					<dim>1</dim>
					<dim>1024</dim>
				</port>
			</input>
			<output>
				<port id="2" precision="FP32" names="733">
					<dim>1</dim>
					<dim>384</dim>
					<dim>1024</dim>
				</port>
			</output>
		</layer>
		<layer id="288" name="734" type="Add" version="opset1">
			<data auto_broadcast="numpy" />
			<input>
				<port id="0" precision="FP32">
					<dim>1</dim>
					<dim>384</dim>
					<dim>1024</dim>
				</port>
				<port id="1" precision="FP32">
					<dim>1</dim>
					<dim>384</dim>
					<dim>1024</dim>
				</port>
			</input>
			<output>
				<port id="2" precision="FP32" names="734">
					<dim>1</dim>
					<dim>384</dim>
					<dim>1024</dim>
				</port>
			</output>
		</layer>
		<layer id="289" name="Constant_1013" type="Const" version="opset1">
			<data element_type="i64" shape="1" offset="63561752" size="8" />
			<output>
				<port id="0" precision="I64">
					<dim>1</dim>
				</port>
			</output>
		</layer>
		<layer id="290" name="743" type="MVN" version="opset6">
			<data eps="9.999999960041972e-13" normalize_variance="true" eps_mode="INSIDE_SQRT" />
			<input>
				<port id="0" precision="FP32">
					<dim>1</dim>
					<dim>384</dim>
					<dim>1024</dim>
				</port>
				<port id="1" precision="I64">
					<dim>1</dim>
				</port>
			</input>
			<output>
				<port id="2" precision="FP32" names="743">
					<dim>1</dim>
					<dim>384</dim>
					<dim>1024</dim>
				</port>
			</output>
		</layer>
		<layer id="291" name="Constant_17171_compressed" type="Const" version="opset1">
			<data element_type="f16" shape="1, 1, 1024" offset="122347694" size="2048" />
			<output>
				<port id="0" precision="FP16">
					<dim>1</dim>
					<dim>1</dim>
					<dim>1024</dim>
				</port>
			</output>
		</layer>
		<layer id="292" name="Constant_17171" type="Convert" version="opset1">
			<data destination_type="f32" />
			<rt_info>
				<attribute name="decompression" version="0" />
			</rt_info>
			<input>
				<port id="0" precision="FP16">
					<dim>1</dim>
					<dim>1</dim>
					<dim>1024</dim>
				</port>
			</input>
			<output>
				<port id="1" precision="FP32">
					<dim>1</dim>
					<dim>1</dim>
					<dim>1024</dim>
				</port>
			</output>
		</layer>
		<layer id="293" name="744" type="Multiply" version="opset1">
			<data auto_broadcast="numpy" />
			<input>
				<port id="0" precision="FP32">
					<dim>1</dim>
					<dim>384</dim>
					<dim>1024</dim>
				</port>
				<port id="1" precision="FP32">
					<dim>1</dim>
					<dim>1</dim>
					<dim>1024</dim>
				</port>
			</input>
			<output>
				<port id="2" precision="FP32" names="744">
					<dim>1</dim>
					<dim>384</dim>
					<dim>1024</dim>
				</port>
			</output>
		</layer>
		<layer id="294" name="Constant_17172_compressed" type="Const" version="opset1">
			<data element_type="f16" shape="1, 1, 1024" offset="122349742" size="2048" />
			<output>
				<port id="0" precision="FP16">
					<dim>1</dim>
					<dim>1</dim>
					<dim>1024</dim>
				</port>
			</output>
		</layer>
		<layer id="295" name="Constant_17172" type="Convert" version="opset1">
			<data destination_type="f32" />
			<rt_info>
				<attribute name="decompression" version="0" />
			</rt_info>
			<input>
				<port id="0" precision="FP16">
					<dim>1</dim>
					<dim>1</dim>
					<dim>1024</dim>
				</port>
			</input>
			<output>
				<port id="1" precision="FP32">
					<dim>1</dim>
					<dim>1</dim>
					<dim>1024</dim>
				</port>
			</output>
		</layer>
		<layer id="296" name="745" type="Add" version="opset1">
			<data auto_broadcast="numpy" />
			<input>
				<port id="0" precision="FP32">
					<dim>1</dim>
					<dim>384</dim>
					<dim>1024</dim>
				</port>
				<port id="1" precision="FP32">
					<dim>1</dim>
					<dim>1</dim>
					<dim>1024</dim>
				</port>
			</input>
			<output>
				<port id="2" precision="FP32" names="745">
					<dim>1</dim>
					<dim>384</dim>
					<dim>1024</dim>
				</port>
			</output>
		</layer>
		<layer id="297" name="bert.encoder.layer.2.intermediate.dense.weight_compressed" type="Const" version="opset1">
			<data element_type="f16" shape="4096, 1024" offset="122351790" size="8388608" />
			<output>
				<port id="0" precision="FP16">
					<dim>4096</dim>
					<dim>1024</dim>
				</port>
			</output>
		</layer>
		<layer id="298" name="bert.encoder.layer.2.intermediate.dense.weight" type="Convert" version="opset1">
			<data destination_type="f32" />
			<rt_info>
				<attribute name="decompression" version="0" />
			</rt_info>
			<input>
				<port id="0" precision="FP16">
					<dim>4096</dim>
					<dim>1024</dim>
				</port>
			</input>
			<output>
				<port id="1" precision="FP32" names="bert.encoder.layer.2.intermediate.dense.weight">
					<dim>4096</dim>
					<dim>1024</dim>
				</port>
			</output>
		</layer>
		<layer id="299" name="747" type="MatMul" version="opset1">
			<data transpose_a="false" transpose_b="true" />
			<input>
				<port id="0" precision="FP32">
					<dim>1</dim>
					<dim>384</dim>
					<dim>1024</dim>
				</port>
				<port id="1" precision="FP32">
					<dim>4096</dim>
					<dim>1024</dim>
				</port>
			</input>
			<output>
				<port id="2" precision="FP32" names="747">
					<dim>1</dim>
					<dim>384</dim>
					<dim>4096</dim>
				</port>
			</output>
		</layer>
		<layer id="300" name="Constant_17173_compressed" type="Const" version="opset1">
			<data element_type="f16" shape="1, 1, 4096" offset="130740398" size="8192" />
			<output>
				<port id="0" precision="FP16">
					<dim>1</dim>
					<dim>1</dim>
					<dim>4096</dim>
				</port>
			</output>
		</layer>
		<layer id="301" name="Constant_17173" type="Convert" version="opset1">
			<data destination_type="f32" />
			<rt_info>
				<attribute name="decompression" version="0" />
			</rt_info>
			<input>
				<port id="0" precision="FP16">
					<dim>1</dim>
					<dim>1</dim>
					<dim>4096</dim>
				</port>
			</input>
			<output>
				<port id="1" precision="FP32">
					<dim>1</dim>
					<dim>1</dim>
					<dim>4096</dim>
				</port>
			</output>
		</layer>
		<layer id="302" name="748" type="Add" version="opset1">
			<data auto_broadcast="numpy" />
			<input>
				<port id="0" precision="FP32">
					<dim>1</dim>
					<dim>384</dim>
					<dim>4096</dim>
				</port>
				<port id="1" precision="FP32">
					<dim>1</dim>
					<dim>1</dim>
					<dim>4096</dim>
				</port>
			</input>
			<output>
				<port id="2" precision="FP32" names="748">
					<dim>1</dim>
					<dim>384</dim>
					<dim>4096</dim>
				</port>
			</output>
		</layer>
		<layer id="303" name="756" type="Gelu" version="opset7">
			<data approximation_mode="ERF" />
			<input>
				<port id="0" precision="FP32">
					<dim>1</dim>
					<dim>384</dim>
					<dim>4096</dim>
				</port>
			</input>
			<output>
				<port id="1" precision="FP32" names="756">
					<dim>1</dim>
					<dim>384</dim>
					<dim>4096</dim>
				</port>
			</output>
		</layer>
		<layer id="304" name="bert.encoder.layer.2.output.dense.weight_compressed" type="Const" version="opset1">
			<data element_type="f16" shape="1024, 4096" offset="130748590" size="8388608" />
			<output>
				<port id="0" precision="FP16">
					<dim>1024</dim>
					<dim>4096</dim>
				</port>
			</output>
		</layer>
		<layer id="305" name="bert.encoder.layer.2.output.dense.weight" type="Convert" version="opset1">
			<data destination_type="f32" />
			<rt_info>
				<attribute name="decompression" version="0" />
			</rt_info>
			<input>
				<port id="0" precision="FP16">
					<dim>1024</dim>
					<dim>4096</dim>
				</port>
			</input>
			<output>
				<port id="1" precision="FP32" names="bert.encoder.layer.2.output.dense.weight">
					<dim>1024</dim>
					<dim>4096</dim>
				</port>
			</output>
		</layer>
		<layer id="306" name="758" type="MatMul" version="opset1">
			<data transpose_a="false" transpose_b="true" />
			<input>
				<port id="0" precision="FP32">
					<dim>1</dim>
					<dim>384</dim>
					<dim>4096</dim>
				</port>
				<port id="1" precision="FP32">
					<dim>1024</dim>
					<dim>4096</dim>
				</port>
			</input>
			<output>
				<port id="2" precision="FP32" names="758">
					<dim>1</dim>
					<dim>384</dim>
					<dim>1024</dim>
				</port>
			</output>
		</layer>
		<layer id="307" name="Constant_17174_compressed" type="Const" version="opset1">
			<data element_type="f16" shape="1, 1, 1024" offset="139137198" size="2048" />
			<output>
				<port id="0" precision="FP16">
					<dim>1</dim>
					<dim>1</dim>
					<dim>1024</dim>
				</port>
			</output>
		</layer>
		<layer id="308" name="Constant_17174" type="Convert" version="opset1">
			<data destination_type="f32" />
			<rt_info>
				<attribute name="decompression" version="0" />
			</rt_info>
			<input>
				<port id="0" precision="FP16">
					<dim>1</dim>
					<dim>1</dim>
					<dim>1024</dim>
				</port>
			</input>
			<output>
				<port id="1" precision="FP32">
					<dim>1</dim>
					<dim>1</dim>
					<dim>1024</dim>
				</port>
			</output>
		</layer>
		<layer id="309" name="759" type="Add" version="opset1">
			<data auto_broadcast="numpy" />
			<input>
				<port id="0" precision="FP32">
					<dim>1</dim>
					<dim>384</dim>
					<dim>1024</dim>
				</port>
				<port id="1" precision="FP32">
					<dim>1</dim>
					<dim>1</dim>
					<dim>1024</dim>
				</port>
			</input>
			<output>
				<port id="2" precision="FP32" names="759">
					<dim>1</dim>
					<dim>384</dim>
					<dim>1024</dim>
				</port>
			</output>
		</layer>
		<layer id="310" name="760" type="Add" version="opset1">
			<data auto_broadcast="numpy" />
			<input>
				<port id="0" precision="FP32">
					<dim>1</dim>
					<dim>384</dim>
					<dim>1024</dim>
				</port>
				<port id="1" precision="FP32">
					<dim>1</dim>
					<dim>384</dim>
					<dim>1024</dim>
				</port>
			</input>
			<output>
				<port id="2" precision="FP32" names="760">
					<dim>1</dim>
					<dim>384</dim>
					<dim>1024</dim>
				</port>
			</output>
		</layer>
		<layer id="311" name="Constant_1043" type="Const" version="opset1">
			<data element_type="i64" shape="1" offset="63561752" size="8" />
			<output>
				<port id="0" precision="I64">
					<dim>1</dim>
				</port>
			</output>
		</layer>
		<layer id="312" name="769" type="MVN" version="opset6">
			<data eps="9.999999960041972e-13" normalize_variance="true" eps_mode="INSIDE_SQRT" />
			<input>
				<port id="0" precision="FP32">
					<dim>1</dim>
					<dim>384</dim>
					<dim>1024</dim>
				</port>
				<port id="1" precision="I64">
					<dim>1</dim>
				</port>
			</input>
			<output>
				<port id="2" precision="FP32" names="769">
					<dim>1</dim>
					<dim>384</dim>
					<dim>1024</dim>
				</port>
			</output>
		</layer>
		<layer id="313" name="Constant_17175_compressed" type="Const" version="opset1">
			<data element_type="f16" shape="1, 1, 1024" offset="139139246" size="2048" />
			<output>
				<port id="0" precision="FP16">
					<dim>1</dim>
					<dim>1</dim>
					<dim>1024</dim>
				</port>
			</output>
		</layer>
		<layer id="314" name="Constant_17175" type="Convert" version="opset1">
			<data destination_type="f32" />
			<rt_info>
				<attribute name="decompression" version="0" />
			</rt_info>
			<input>
				<port id="0" precision="FP16">
					<dim>1</dim>
					<dim>1</dim>
					<dim>1024</dim>
				</port>
			</input>
			<output>
				<port id="1" precision="FP32">
					<dim>1</dim>
					<dim>1</dim>
					<dim>1024</dim>
				</port>
			</output>
		</layer>
		<layer id="315" name="770" type="Multiply" version="opset1">
			<data auto_broadcast="numpy" />
			<input>
				<port id="0" precision="FP32">
					<dim>1</dim>
					<dim>384</dim>
					<dim>1024</dim>
				</port>
				<port id="1" precision="FP32">
					<dim>1</dim>
					<dim>1</dim>
					<dim>1024</dim>
				</port>
			</input>
			<output>
				<port id="2" precision="FP32" names="770">
					<dim>1</dim>
					<dim>384</dim>
					<dim>1024</dim>
				</port>
			</output>
		</layer>
		<layer id="316" name="Constant_17176_compressed" type="Const" version="opset1">
			<data element_type="f16" shape="1, 1, 1024" offset="139141294" size="2048" />
			<output>
				<port id="0" precision="FP16">
					<dim>1</dim>
					<dim>1</dim>
					<dim>1024</dim>
				</port>
			</output>
		</layer>
		<layer id="317" name="Constant_17176" type="Convert" version="opset1">
			<data destination_type="f32" />
			<rt_info>
				<attribute name="decompression" version="0" />
			</rt_info>
			<input>
				<port id="0" precision="FP16">
					<dim>1</dim>
					<dim>1</dim>
					<dim>1024</dim>
				</port>
			</input>
			<output>
				<port id="1" precision="FP32">
					<dim>1</dim>
					<dim>1</dim>
					<dim>1024</dim>
				</port>
			</output>
		</layer>
		<layer id="318" name="771" type="Add" version="opset1">
			<data auto_broadcast="numpy" />
			<input>
				<port id="0" precision="FP32">
					<dim>1</dim>
					<dim>384</dim>
					<dim>1024</dim>
				</port>
				<port id="1" precision="FP32">
					<dim>1</dim>
					<dim>1</dim>
					<dim>1024</dim>
				</port>
			</input>
			<output>
				<port id="2" precision="FP32" names="771">
					<dim>1</dim>
					<dim>384</dim>
					<dim>1024</dim>
				</port>
			</output>
		</layer>
		<layer id="319" name="bert.encoder.layer.3.attention.self.query.weight_compressed" type="Const" version="opset1">
			<data element_type="f16" shape="1024, 1024" offset="139143342" size="2097152" />
			<output>
				<port id="0" precision="FP16">
					<dim>1024</dim>
					<dim>1024</dim>
				</port>
			</output>
		</layer>
		<layer id="320" name="bert.encoder.layer.3.attention.self.query.weight" type="Convert" version="opset1">
			<data destination_type="f32" />
			<rt_info>
				<attribute name="decompression" version="0" />
			</rt_info>
			<input>
				<port id="0" precision="FP16">
					<dim>1024</dim>
					<dim>1024</dim>
				</port>
			</input>
			<output>
				<port id="1" precision="FP32" names="bert.encoder.layer.3.attention.self.query.weight">
					<dim>1024</dim>
					<dim>1024</dim>
				</port>
			</output>
		</layer>
		<layer id="321" name="773" type="MatMul" version="opset1">
			<data transpose_a="false" transpose_b="true" />
			<input>
				<port id="0" precision="FP32">
					<dim>1</dim>
					<dim>384</dim>
					<dim>1024</dim>
				</port>
				<port id="1" precision="FP32">
					<dim>1024</dim>
					<dim>1024</dim>
				</port>
			</input>
			<output>
				<port id="2" precision="FP32" names="773">
					<dim>1</dim>
					<dim>384</dim>
					<dim>1024</dim>
				</port>
			</output>
		</layer>
		<layer id="322" name="Constant_17177_compressed" type="Const" version="opset1">
			<data element_type="f16" shape="1, 1, 1024" offset="141240494" size="2048" />
			<output>
				<port id="0" precision="FP16">
					<dim>1</dim>
					<dim>1</dim>
					<dim>1024</dim>
				</port>
			</output>
		</layer>
		<layer id="323" name="Constant_17177" type="Convert" version="opset1">
			<data destination_type="f32" />
			<rt_info>
				<attribute name="decompression" version="0" />
			</rt_info>
			<input>
				<port id="0" precision="FP16">
					<dim>1</dim>
					<dim>1</dim>
					<dim>1024</dim>
				</port>
			</input>
			<output>
				<port id="1" precision="FP32">
					<dim>1</dim>
					<dim>1</dim>
					<dim>1024</dim>
				</port>
			</output>
		</layer>
		<layer id="324" name="774" type="Add" version="opset1">
			<data auto_broadcast="numpy" />
			<input>
				<port id="0" precision="FP32">
					<dim>1</dim>
					<dim>384</dim>
					<dim>1024</dim>
				</port>
				<port id="1" precision="FP32">
					<dim>1</dim>
					<dim>1</dim>
					<dim>1024</dim>
				</port>
			</input>
			<output>
				<port id="2" precision="FP32" names="774">
					<dim>1</dim>
					<dim>384</dim>
					<dim>1024</dim>
				</port>
			</output>
		</layer>
		<layer id="325" name="793" type="Const" version="opset1">
			<data element_type="i64" shape="4" offset="65665056" size="32" />
			<output>
				<port id="0" precision="I64">
					<dim>4</dim>
				</port>
			</output>
		</layer>
		<layer id="326" name="794" type="Reshape" version="opset1">
			<data special_zero="true" />
			<input>
				<port id="0" precision="FP32">
					<dim>1</dim>
					<dim>384</dim>
					<dim>1024</dim>
				</port>
				<port id="1" precision="I64">
					<dim>4</dim>
				</port>
			</input>
			<output>
				<port id="2" precision="FP32" names="794">
					<dim>1</dim>
					<dim>384</dim>
					<dim>16</dim>
					<dim>64</dim>
				</port>
			</output>
		</layer>
		<layer id="327" name="Constant_1090" type="Const" version="opset1">
			<data element_type="i64" shape="4" offset="65665088" size="32" />
			<output>
				<port id="0" precision="I64">
					<dim>4</dim>
				</port>
			</output>
		</layer>
		<layer id="328" name="795" type="Transpose" version="opset1">
			<input>
				<port id="0" precision="FP32">
					<dim>1</dim>
					<dim>384</dim>
					<dim>16</dim>
					<dim>64</dim>
				</port>
				<port id="1" precision="I64">
					<dim>4</dim>
				</port>
			</input>
			<output>
				<port id="2" precision="FP32" names="795">
					<dim>1</dim>
					<dim>16</dim>
					<dim>384</dim>
					<dim>64</dim>
				</port>
			</output>
		</layer>
		<layer id="329" name="bert.encoder.layer.3.attention.self.key.weight_compressed" type="Const" version="opset1">
			<data element_type="f16" shape="1024, 1024" offset="141242542" size="2097152" />
			<output>
				<port id="0" precision="FP16">
					<dim>1024</dim>
					<dim>1024</dim>
				</port>
			</output>
		</layer>
		<layer id="330" name="bert.encoder.layer.3.attention.self.key.weight" type="Convert" version="opset1">
			<data destination_type="f32" />
			<rt_info>
				<attribute name="decompression" version="0" />
			</rt_info>
			<input>
				<port id="0" precision="FP16">
					<dim>1024</dim>
					<dim>1024</dim>
				</port>
			</input>
			<output>
				<port id="1" precision="FP32" names="bert.encoder.layer.3.attention.self.key.weight">
					<dim>1024</dim>
					<dim>1024</dim>
				</port>
			</output>
		</layer>
		<layer id="331" name="776" type="MatMul" version="opset1">
			<data transpose_a="false" transpose_b="true" />
			<input>
				<port id="0" precision="FP32">
					<dim>1</dim>
					<dim>384</dim>
					<dim>1024</dim>
				</port>
				<port id="1" precision="FP32">
					<dim>1024</dim>
					<dim>1024</dim>
				</port>
			</input>
			<output>
				<port id="2" precision="FP32" names="776">
					<dim>1</dim>
					<dim>384</dim>
					<dim>1024</dim>
				</port>
			</output>
		</layer>
		<layer id="332" name="Constant_17178_compressed" type="Const" version="opset1">
			<data element_type="f16" shape="1, 1, 1024" offset="143339694" size="2048" />
			<output>
				<port id="0" precision="FP16">
					<dim>1</dim>
					<dim>1</dim>
					<dim>1024</dim>
				</port>
			</output>
		</layer>
		<layer id="333" name="Constant_17178" type="Convert" version="opset1">
			<data destination_type="f32" />
			<rt_info>
				<attribute name="decompression" version="0" />
			</rt_info>
			<input>
				<port id="0" precision="FP16">
					<dim>1</dim>
					<dim>1</dim>
					<dim>1024</dim>
				</port>
			</input>
			<output>
				<port id="1" precision="FP32">
					<dim>1</dim>
					<dim>1</dim>
					<dim>1024</dim>
				</port>
			</output>
		</layer>
		<layer id="334" name="777" type="Add" version="opset1">
			<data auto_broadcast="numpy" />
			<input>
				<port id="0" precision="FP32">
					<dim>1</dim>
					<dim>384</dim>
					<dim>1024</dim>
				</port>
				<port id="1" precision="FP32">
					<dim>1</dim>
					<dim>1</dim>
					<dim>1024</dim>
				</port>
			</input>
			<output>
				<port id="2" precision="FP32" names="777">
					<dim>1</dim>
					<dim>384</dim>
					<dim>1024</dim>
				</port>
			</output>
		</layer>
		<layer id="335" name="808" type="Const" version="opset1">
			<data element_type="i64" shape="4" offset="65665056" size="32" />
			<output>
				<port id="0" precision="I64">
					<dim>4</dim>
				</port>
			</output>
		</layer>
		<layer id="336" name="809" type="Reshape" version="opset1">
			<data special_zero="true" />
			<input>
				<port id="0" precision="FP32">
					<dim>1</dim>
					<dim>384</dim>
					<dim>1024</dim>
				</port>
				<port id="1" precision="I64">
					<dim>4</dim>
				</port>
			</input>
			<output>
				<port id="2" precision="FP32" names="809">
					<dim>1</dim>
					<dim>384</dim>
					<dim>16</dim>
					<dim>64</dim>
				</port>
			</output>
		</layer>
		<layer id="337" name="Constant_1138" type="Const" version="opset1">
			<data element_type="i64" shape="4" offset="67764320" size="32" />
			<output>
				<port id="0" precision="I64">
					<dim>4</dim>
				</port>
			</output>
		</layer>
		<layer id="338" name="825" type="Transpose" version="opset1">
			<input>
				<port id="0" precision="FP32">
					<dim>1</dim>
					<dim>384</dim>
					<dim>16</dim>
					<dim>64</dim>
				</port>
				<port id="1" precision="I64">
					<dim>4</dim>
				</port>
			</input>
			<output>
				<port id="2" precision="FP32" names="825">
					<dim>1</dim>
					<dim>16</dim>
					<dim>64</dim>
					<dim>384</dim>
				</port>
			</output>
		</layer>
		<layer id="339" name="Constant_17179_compressed" type="Const" version="opset1">
			<data element_type="f16" shape="1, 1, 1, 1" offset="67764352" size="2" />
			<output>
				<port id="0" precision="FP16">
					<dim>1</dim>
					<dim>1</dim>
					<dim>1</dim>
					<dim>1</dim>
				</port>
			</output>
		</layer>
		<layer id="340" name="Constant_17179" type="Convert" version="opset1">
			<data destination_type="f32" />
			<rt_info>
				<attribute name="decompression" version="0" />
			</rt_info>
			<input>
				<port id="0" precision="FP16">
					<dim>1</dim>
					<dim>1</dim>
					<dim>1</dim>
					<dim>1</dim>
				</port>
			</input>
			<output>
				<port id="1" precision="FP32">
					<dim>1</dim>
					<dim>1</dim>
					<dim>1</dim>
					<dim>1</dim>
				</port>
			</output>
		</layer>
		<layer id="341" name="Multiply_16853" type="Multiply" version="opset1">
			<data auto_broadcast="numpy" />
			<input>
				<port id="0" precision="FP32">
					<dim>1</dim>
					<dim>16</dim>
					<dim>64</dim>
					<dim>384</dim>
				</port>
				<port id="1" precision="FP32">
					<dim>1</dim>
					<dim>1</dim>
					<dim>1</dim>
					<dim>1</dim>
				</port>
			</input>
			<output>
				<port id="2" precision="FP32">
					<dim>1</dim>
					<dim>16</dim>
					<dim>64</dim>
					<dim>384</dim>
				</port>
			</output>
		</layer>
		<layer id="342" name="828" type="MatMul" version="opset1">
			<data transpose_a="false" transpose_b="false" />
			<input>
				<port id="0" precision="FP32">
					<dim>1</dim>
					<dim>16</dim>
					<dim>384</dim>
					<dim>64</dim>
				</port>
				<port id="1" precision="FP32">
					<dim>1</dim>
					<dim>16</dim>
					<dim>64</dim>
					<dim>384</dim>
				</port>
			</input>
			<output>
				<port id="2" precision="FP32" names="828">
					<dim>1</dim>
					<dim>16</dim>
					<dim>384</dim>
					<dim>384</dim>
				</port>
			</output>
		</layer>
		<layer id="343" name="829" type="Add" version="opset1">
			<data auto_broadcast="numpy" />
			<input>
				<port id="0" precision="FP32">
					<dim>1</dim>
					<dim>16</dim>
					<dim>384</dim>
					<dim>384</dim>
				</port>
				<port id="1" precision="FP32">
					<dim>1</dim>
					<dim>1</dim>
					<dim>1</dim>
					<dim>384</dim>
				</port>
			</input>
			<output>
				<port id="2" precision="FP32" names="829">
					<dim>1</dim>
					<dim>16</dim>
					<dim>384</dim>
					<dim>384</dim>
				</port>
			</output>
		</layer>
		<layer id="344" name="ShapeOf_1144" type="ShapeOf" version="opset1">
			<input>
				<port id="0" precision="FP32">
					<dim>1</dim>
					<dim>16</dim>
					<dim>384</dim>
					<dim>384</dim>
				</port>
			</input>
			<output>
				<port id="1" precision="I64">
					<dim>4</dim>
				</port>
			</output>
		</layer>
		<layer id="345" name="Constant_1147" type="Const" version="opset1">
			<data element_type="i64" shape="1" offset="62509056" size="8" />
			<output>
				<port id="0" precision="I64">
					<dim>1</dim>
				</port>
			</output>
		</layer>
		<layer id="346" name="Constant_1146" type="Const" version="opset1">
			<data element_type="i64" shape="1" offset="67764366" size="8" />
			<output>
				<port id="0" precision="I64">
					<dim>1</dim>
				</port>
			</output>
		</layer>
		<layer id="347" name="Constant_1148" type="Const" version="opset1">
			<data element_type="i64" shape="1" offset="63557640" size="8" />
			<output>
				<port id="0" precision="I64">
					<dim>1</dim>
				</port>
			</output>
		</layer>
		<layer id="348" name="StridedSlice_1149" type="StridedSlice" version="opset1">
			<data begin_mask="0" end_mask="0" new_axis_mask="" shrink_axis_mask="" ellipsis_mask="" />
			<input>
				<port id="0" precision="I64">
					<dim>4</dim>
				</port>
				<port id="1" precision="I64">
					<dim>1</dim>
				</port>
				<port id="2" precision="I64">
					<dim>1</dim>
				</port>
				<port id="3" precision="I64">
					<dim>1</dim>
				</port>
			</input>
			<output>
				<port id="4" precision="I64">
					<dim>3</dim>
				</port>
			</output>
		</layer>
		<layer id="349" name="Constant_1150" type="Const" version="opset1">
			<data element_type="i64" shape="" offset="62509056" size="8" />
			<output>
				<port id="0" precision="I64" />
			</output>
		</layer>
		<layer id="350" name="ReduceProd_1151" type="ReduceProd" version="opset1">
			<data keep_dims="true" />
			<input>
				<port id="0" precision="I64">
					<dim>3</dim>
				</port>
				<port id="1" precision="I64" />
			</input>
			<output>
				<port id="2" precision="I64">
					<dim>1</dim>
				</port>
			</output>
		</layer>
		<layer id="351" name="Constant_1152" type="Const" version="opset1">
			<data element_type="i64" shape="1" offset="63561752" size="8" />
			<output>
				<port id="0" precision="I64">
					<dim>1</dim>
				</port>
			</output>
		</layer>
		<layer id="352" name="Concat_1153" type="Concat" version="opset1">
			<data axis="0" />
			<input>
				<port id="0" precision="I64">
					<dim>1</dim>
				</port>
				<port id="1" precision="I64">
					<dim>1</dim>
				</port>
			</input>
			<output>
				<port id="2" precision="I64">
					<dim>2</dim>
				</port>
			</output>
		</layer>
		<layer id="353" name="Reshape_1154" type="Reshape" version="opset1">
			<data special_zero="true" />
			<input>
				<port id="0" precision="FP32">
					<dim>1</dim>
					<dim>16</dim>
					<dim>384</dim>
					<dim>384</dim>
				</port>
				<port id="1" precision="I64">
					<dim>2</dim>
				</port>
			</input>
			<output>
				<port id="2" precision="FP32">
					<dim>6144</dim>
					<dim>384</dim>
				</port>
			</output>
		</layer>
		<layer id="354" name="Softmax_1185" type="SoftMax" version="opset8">
			<data axis="1" />
			<input>
				<port id="0" precision="FP32">
					<dim>6144</dim>
					<dim>384</dim>
				</port>
			</input>
			<output>
				<port id="1" precision="FP32">
					<dim>6144</dim>
					<dim>384</dim>
				</port>
			</output>
		</layer>
		<layer id="355" name="830" type="Reshape" version="opset1">
			<data special_zero="false" />
			<input>
				<port id="0" precision="FP32">
					<dim>6144</dim>
					<dim>384</dim>
				</port>
				<port id="1" precision="I64">
					<dim>4</dim>
				</port>
			</input>
			<output>
				<port id="2" precision="FP32" names="830">
					<dim>1</dim>
					<dim>16</dim>
					<dim>384</dim>
					<dim>384</dim>
				</port>
			</output>
		</layer>
		<layer id="356" name="bert.encoder.layer.3.attention.self.value.weight_compressed" type="Const" version="opset1">
			<data element_type="f16" shape="1024, 1024" offset="143341742" size="2097152" />
			<output>
				<port id="0" precision="FP16">
					<dim>1024</dim>
					<dim>1024</dim>
				</port>
			</output>
		</layer>
		<layer id="357" name="bert.encoder.layer.3.attention.self.value.weight" type="Convert" version="opset1">
			<data destination_type="f32" />
			<rt_info>
				<attribute name="decompression" version="0" />
			</rt_info>
			<input>
				<port id="0" precision="FP16">
					<dim>1024</dim>
					<dim>1024</dim>
				</port>
			</input>
			<output>
				<port id="1" precision="FP32" names="bert.encoder.layer.3.attention.self.value.weight">
					<dim>1024</dim>
					<dim>1024</dim>
				</port>
			</output>
		</layer>
		<layer id="358" name="779" type="MatMul" version="opset1">
			<data transpose_a="false" transpose_b="true" />
			<input>
				<port id="0" precision="FP32">
					<dim>1</dim>
					<dim>384</dim>
					<dim>1024</dim>
				</port>
				<port id="1" precision="FP32">
					<dim>1024</dim>
					<dim>1024</dim>
				</port>
			</input>
			<output>
				<port id="2" precision="FP32" names="779">
					<dim>1</dim>
					<dim>384</dim>
					<dim>1024</dim>
				</port>
			</output>
		</layer>
		<layer id="359" name="Constant_17180_compressed" type="Const" version="opset1">
			<data element_type="f16" shape="1, 1, 1024" offset="145438894" size="2048" />
			<output>
				<port id="0" precision="FP16">
					<dim>1</dim>
					<dim>1</dim>
					<dim>1024</dim>
				</port>
			</output>
		</layer>
		<layer id="360" name="Constant_17180" type="Convert" version="opset1">
			<data destination_type="f32" />
			<rt_info>
				<attribute name="decompression" version="0" />
			</rt_info>
			<input>
				<port id="0" precision="FP16">
					<dim>1</dim>
					<dim>1</dim>
					<dim>1024</dim>
				</port>
			</input>
			<output>
				<port id="1" precision="FP32">
					<dim>1</dim>
					<dim>1</dim>
					<dim>1024</dim>
				</port>
			</output>
		</layer>
		<layer id="361" name="780" type="Add" version="opset1">
			<data auto_broadcast="numpy" />
			<input>
				<port id="0" precision="FP32">
					<dim>1</dim>
					<dim>384</dim>
					<dim>1024</dim>
				</port>
				<port id="1" precision="FP32">
					<dim>1</dim>
					<dim>1</dim>
					<dim>1024</dim>
				</port>
			</input>
			<output>
				<port id="2" precision="FP32" names="780">
					<dim>1</dim>
					<dim>384</dim>
					<dim>1024</dim>
				</port>
			</output>
		</layer>
		<layer id="362" name="822" type="Const" version="opset1">
			<data element_type="i64" shape="4" offset="65665056" size="32" />
			<output>
				<port id="0" precision="I64">
					<dim>4</dim>
				</port>
			</output>
		</layer>
		<layer id="363" name="823" type="Reshape" version="opset1">
			<data special_zero="true" />
			<input>
				<port id="0" precision="FP32">
					<dim>1</dim>
					<dim>384</dim>
					<dim>1024</dim>
				</port>
				<port id="1" precision="I64">
					<dim>4</dim>
				</port>
			</input>
			<output>
				<port id="2" precision="FP32" names="823">
					<dim>1</dim>
					<dim>384</dim>
					<dim>16</dim>
					<dim>64</dim>
				</port>
			</output>
		</layer>
		<layer id="364" name="Constant_1136" type="Const" version="opset1">
			<data element_type="i64" shape="4" offset="65665088" size="32" />
			<output>
				<port id="0" precision="I64">
					<dim>4</dim>
				</port>
			</output>
		</layer>
		<layer id="365" name="824" type="Transpose" version="opset1">
			<input>
				<port id="0" precision="FP32">
					<dim>1</dim>
					<dim>384</dim>
					<dim>16</dim>
					<dim>64</dim>
				</port>
				<port id="1" precision="I64">
					<dim>4</dim>
				</port>
			</input>
			<output>
				<port id="2" precision="FP32" names="824">
					<dim>1</dim>
					<dim>16</dim>
					<dim>384</dim>
					<dim>64</dim>
				</port>
			</output>
		</layer>
		<layer id="366" name="831" type="MatMul" version="opset1">
			<data transpose_a="false" transpose_b="false" />
			<input>
				<port id="0" precision="FP32">
					<dim>1</dim>
					<dim>16</dim>
					<dim>384</dim>
					<dim>384</dim>
				</port>
				<port id="1" precision="FP32">
					<dim>1</dim>
					<dim>16</dim>
					<dim>384</dim>
					<dim>64</dim>
				</port>
			</input>
			<output>
				<port id="2" precision="FP32" names="831">
					<dim>1</dim>
					<dim>16</dim>
					<dim>384</dim>
					<dim>64</dim>
				</port>
			</output>
		</layer>
		<layer id="367" name="Constant_1191" type="Const" version="opset1">
			<data element_type="i64" shape="4" offset="65665088" size="32" />
			<output>
				<port id="0" precision="I64">
					<dim>4</dim>
				</port>
			</output>
		</layer>
		<layer id="368" name="832" type="Transpose" version="opset1">
			<input>
				<port id="0" precision="FP32">
					<dim>1</dim>
					<dim>16</dim>
					<dim>384</dim>
					<dim>64</dim>
				</port>
				<port id="1" precision="I64">
					<dim>4</dim>
				</port>
			</input>
			<output>
				<port id="2" precision="FP32" names="832">
					<dim>1</dim>
					<dim>384</dim>
					<dim>16</dim>
					<dim>64</dim>
				</port>
			</output>
		</layer>
		<layer id="369" name="843" type="Const" version="opset1">
			<data element_type="i64" shape="3" offset="69863574" size="24" />
			<output>
				<port id="0" precision="I64">
					<dim>3</dim>
				</port>
			</output>
		</layer>
		<layer id="370" name="844" type="Reshape" version="opset1">
			<data special_zero="true" />
			<input>
				<port id="0" precision="FP32">
					<dim>1</dim>
					<dim>384</dim>
					<dim>16</dim>
					<dim>64</dim>
				</port>
				<port id="1" precision="I64">
					<dim>3</dim>
				</port>
			</input>
			<output>
				<port id="2" precision="FP32" names="844">
					<dim>1</dim>
					<dim>384</dim>
					<dim>1024</dim>
				</port>
			</output>
		</layer>
		<layer id="371" name="bert.encoder.layer.3.attention.output.dense.weight_compressed" type="Const" version="opset1">
			<data element_type="f16" shape="1024, 1024" offset="145440942" size="2097152" />
			<output>
				<port id="0" precision="FP16">
					<dim>1024</dim>
					<dim>1024</dim>
				</port>
			</output>
		</layer>
		<layer id="372" name="bert.encoder.layer.3.attention.output.dense.weight" type="Convert" version="opset1">
			<data destination_type="f32" />
			<rt_info>
				<attribute name="decompression" version="0" />
			</rt_info>
			<input>
				<port id="0" precision="FP16">
					<dim>1024</dim>
					<dim>1024</dim>
				</port>
			</input>
			<output>
				<port id="1" precision="FP32" names="bert.encoder.layer.3.attention.output.dense.weight">
					<dim>1024</dim>
					<dim>1024</dim>
				</port>
			</output>
		</layer>
		<layer id="373" name="846" type="MatMul" version="opset1">
			<data transpose_a="false" transpose_b="true" />
			<input>
				<port id="0" precision="FP32">
					<dim>1</dim>
					<dim>384</dim>
					<dim>1024</dim>
				</port>
				<port id="1" precision="FP32">
					<dim>1024</dim>
					<dim>1024</dim>
				</port>
			</input>
			<output>
				<port id="2" precision="FP32" names="846">
					<dim>1</dim>
					<dim>384</dim>
					<dim>1024</dim>
				</port>
			</output>
		</layer>
		<layer id="374" name="Constant_17181_compressed" type="Const" version="opset1">
			<data element_type="f16" shape="1, 1, 1024" offset="147538094" size="2048" />
			<output>
				<port id="0" precision="FP16">
					<dim>1</dim>
					<dim>1</dim>
					<dim>1024</dim>
				</port>
			</output>
		</layer>
		<layer id="375" name="Constant_17181" type="Convert" version="opset1">
			<data destination_type="f32" />
			<rt_info>
				<attribute name="decompression" version="0" />
			</rt_info>
			<input>
				<port id="0" precision="FP16">
					<dim>1</dim>
					<dim>1</dim>
					<dim>1024</dim>
				</port>
			</input>
			<output>
				<port id="1" precision="FP32">
					<dim>1</dim>
					<dim>1</dim>
					<dim>1024</dim>
				</port>
			</output>
		</layer>
		<layer id="376" name="847" type="Add" version="opset1">
			<data auto_broadcast="numpy" />
			<input>
				<port id="0" precision="FP32">
					<dim>1</dim>
					<dim>384</dim>
					<dim>1024</dim>
				</port>
				<port id="1" precision="FP32">
					<dim>1</dim>
					<dim>1</dim>
					<dim>1024</dim>
				</port>
			</input>
			<output>
				<port id="2" precision="FP32" names="847">
					<dim>1</dim>
					<dim>384</dim>
					<dim>1024</dim>
				</port>
			</output>
		</layer>
		<layer id="377" name="848" type="Add" version="opset1">
			<data auto_broadcast="numpy" />
			<input>
				<port id="0" precision="FP32">
					<dim>1</dim>
					<dim>384</dim>
					<dim>1024</dim>
				</port>
				<port id="1" precision="FP32">
					<dim>1</dim>
					<dim>384</dim>
					<dim>1024</dim>
				</port>
			</input>
			<output>
				<port id="2" precision="FP32" names="848">
					<dim>1</dim>
					<dim>384</dim>
					<dim>1024</dim>
				</port>
			</output>
		</layer>
		<layer id="378" name="Constant_1217" type="Const" version="opset1">
			<data element_type="i64" shape="1" offset="63561752" size="8" />
			<output>
				<port id="0" precision="I64">
					<dim>1</dim>
				</port>
			</output>
		</layer>
		<layer id="379" name="857" type="MVN" version="opset6">
			<data eps="9.999999960041972e-13" normalize_variance="true" eps_mode="INSIDE_SQRT" />
			<input>
				<port id="0" precision="FP32">
					<dim>1</dim>
					<dim>384</dim>
					<dim>1024</dim>
				</port>
				<port id="1" precision="I64">
					<dim>1</dim>
				</port>
			</input>
			<output>
				<port id="2" precision="FP32" names="857">
					<dim>1</dim>
					<dim>384</dim>
					<dim>1024</dim>
				</port>
			</output>
		</layer>
		<layer id="380" name="Constant_17182_compressed" type="Const" version="opset1">
			<data element_type="f16" shape="1, 1, 1024" offset="147540142" size="2048" />
			<output>
				<port id="0" precision="FP16">
					<dim>1</dim>
					<dim>1</dim>
					<dim>1024</dim>
				</port>
			</output>
		</layer>
		<layer id="381" name="Constant_17182" type="Convert" version="opset1">
			<data destination_type="f32" />
			<rt_info>
				<attribute name="decompression" version="0" />
			</rt_info>
			<input>
				<port id="0" precision="FP16">
					<dim>1</dim>
					<dim>1</dim>
					<dim>1024</dim>
				</port>
			</input>
			<output>
				<port id="1" precision="FP32">
					<dim>1</dim>
					<dim>1</dim>
					<dim>1024</dim>
				</port>
			</output>
		</layer>
		<layer id="382" name="858" type="Multiply" version="opset1">
			<data auto_broadcast="numpy" />
			<input>
				<port id="0" precision="FP32">
					<dim>1</dim>
					<dim>384</dim>
					<dim>1024</dim>
				</port>
				<port id="1" precision="FP32">
					<dim>1</dim>
					<dim>1</dim>
					<dim>1024</dim>
				</port>
			</input>
			<output>
				<port id="2" precision="FP32" names="858">
					<dim>1</dim>
					<dim>384</dim>
…
		<edge from-layer="1549" from-port="1" to-layer="1552" to-port="0" />
		<edge from-layer="1550" from-port="0" to-layer="1551" to-port="0" />
		<edge from-layer="1551" from-port="1" to-layer="1552" to-port="1" />
		<edge from-layer="1552" from-port="2" to-layer="1555" to-port="0" />
		<edge from-layer="1553" from-port="0" to-layer="1554" to-port="0" />
		<edge from-layer="1554" from-port="1" to-layer="1555" to-port="1" />
		<edge from-layer="1555" from-port="2" to-layer="1556" to-port="0" />
		<edge from-layer="1556" from-port="2" to-layer="1558" to-port="0" />
		<edge from-layer="1557" from-port="0" to-layer="1558" to-port="1" />
		<edge from-layer="1558" from-port="2" to-layer="1561" to-port="0" />
		<edge from-layer="1559" from-port="0" to-layer="1560" to-port="0" />
		<edge from-layer="1560" from-port="1" to-layer="1561" to-port="1" />
		<edge from-layer="1561" from-port="2" to-layer="1564" to-port="0" />
		<edge from-layer="1562" from-port="0" to-layer="1563" to-port="0" />
		<edge from-layer="1563" from-port="1" to-layer="1564" to-port="1" />
		<edge from-layer="1564" from-port="2" to-layer="1604" to-port="0" />
		<edge from-layer="1564" from-port="2" to-layer="1623" to-port="1" />
		<edge from-layer="1564" from-port="2" to-layer="1577" to-port="0" />
		<edge from-layer="1564" from-port="2" to-layer="1567" to-port="0" />
		<edge from-layer="1565" from-port="0" to-layer="1566" to-port="0" />
		<edge from-layer="1566" from-port="1" to-layer="1567" to-port="1" />
		<edge from-layer="1567" from-port="2" to-layer="1570" to-port="0" />
		<edge from-layer="1568" from-port="0" to-layer="1569" to-port="0" />
		<edge from-layer="1569" from-port="1" to-layer="1570" to-port="1" />
		<edge from-layer="1570" from-port="2" to-layer="1572" to-port="0" />
		<edge from-layer="1571" from-port="0" to-layer="1572" to-port="1" />
		<edge from-layer="1572" from-port="2" to-layer="1574" to-port="0" />
		<edge from-layer="1573" from-port="0" to-layer="1574" to-port="1" />
		<edge from-layer="1574" from-port="2" to-layer="1588" to-port="0" />
		<edge from-layer="1575" from-port="0" to-layer="1576" to-port="0" />
		<edge from-layer="1576" from-port="1" to-layer="1577" to-port="1" />
		<edge from-layer="1577" from-port="2" to-layer="1580" to-port="0" />
		<edge from-layer="1578" from-port="0" to-layer="1579" to-port="0" />
		<edge from-layer="1579" from-port="1" to-layer="1580" to-port="1" />
		<edge from-layer="1580" from-port="2" to-layer="1582" to-port="0" />
		<edge from-layer="1581" from-port="0" to-layer="1582" to-port="1" />
		<edge from-layer="1582" from-port="2" to-layer="1584" to-port="0" />
		<edge from-layer="1583" from-port="0" to-layer="1584" to-port="1" />
		<edge from-layer="1584" from-port="2" to-layer="1587" to-port="0" />
		<edge from-layer="1585" from-port="0" to-layer="1586" to-port="0" />
		<edge from-layer="1586" from-port="1" to-layer="1587" to-port="1" />
		<edge from-layer="1587" from-port="2" to-layer="1588" to-port="1" />
		<edge from-layer="1588" from-port="2" to-layer="1589" to-port="0" />
		<edge from-layer="1589" from-port="2" to-layer="1590" to-port="0" />
		<edge from-layer="1589" from-port="2" to-layer="1599" to-port="0" />
		<edge from-layer="1590" from-port="1" to-layer="1601" to-port="1" />
		<edge from-layer="1590" from-port="1" to-layer="1594" to-port="0" />
		<edge from-layer="1591" from-port="0" to-layer="1594" to-port="1" />
		<edge from-layer="1592" from-port="0" to-layer="1594" to-port="2" />
		<edge from-layer="1593" from-port="0" to-layer="1594" to-port="3" />
		<edge from-layer="1594" from-port="4" to-layer="1596" to-port="0" />
		<edge from-layer="1595" from-port="0" to-layer="1596" to-port="1" />
		<edge from-layer="1596" from-port="2" to-layer="1598" to-port="0" />
		<edge from-layer="1597" from-port="0" to-layer="1598" to-port="1" />
		<edge from-layer="1598" from-port="2" to-layer="1599" to-port="1" />
		<edge from-layer="1599" from-port="2" to-layer="1600" to-port="0" />
		<edge from-layer="1600" from-port="1" to-layer="1601" to-port="0" />
		<edge from-layer="1601" from-port="2" to-layer="1612" to-port="0" />
		<edge from-layer="1602" from-port="0" to-layer="1603" to-port="0" />
		<edge from-layer="1603" from-port="1" to-layer="1604" to-port="1" />
		<edge from-layer="1604" from-port="2" to-layer="1607" to-port="0" />
		<edge from-layer="1605" from-port="0" to-layer="1606" to-port="0" />
		<edge from-layer="1606" from-port="1" to-layer="1607" to-port="1" />
		<edge from-layer="1607" from-port="2" to-layer="1609" to-port="0" />
		<edge from-layer="1608" from-port="0" to-layer="1609" to-port="1" />
		<edge from-layer="1609" from-port="2" to-layer="1611" to-port="0" />
		<edge from-layer="1610" from-port="0" to-layer="1611" to-port="1" />
		<edge from-layer="1611" from-port="2" to-layer="1612" to-port="1" />
		<edge from-layer="1612" from-port="2" to-layer="1614" to-port="0" />
		<edge from-layer="1613" from-port="0" to-layer="1614" to-port="1" />
		<edge from-layer="1614" from-port="2" to-layer="1616" to-port="0" />
		<edge from-layer="1615" from-port="0" to-layer="1616" to-port="1" />
		<edge from-layer="1616" from-port="2" to-layer="1619" to-port="0" />
		<edge from-layer="1617" from-port="0" to-layer="1618" to-port="0" />
		<edge from-layer="1618" from-port="1" to-layer="1619" to-port="1" />
		<edge from-layer="1619" from-port="2" to-layer="1622" to-port="0" />
		<edge from-layer="1620" from-port="0" to-layer="1621" to-port="0" />
		<edge from-layer="1621" from-port="1" to-layer="1622" to-port="1" />
		<edge from-layer="1622" from-port="2" to-layer="1623" to-port="0" />
		<edge from-layer="1623" from-port="2" to-layer="1625" to-port="0" />
		<edge from-layer="1624" from-port="0" to-layer="1625" to-port="1" />
		<edge from-layer="1625" from-port="2" to-layer="1628" to-port="0" />
		<edge from-layer="1626" from-port="0" to-layer="1627" to-port="0" />
		<edge from-layer="1627" from-port="1" to-layer="1628" to-port="1" />
		<edge from-layer="1628" from-port="2" to-layer="1631" to-port="0" />
		<edge from-layer="1629" from-port="0" to-layer="1630" to-port="0" />
		<edge from-layer="1630" from-port="1" to-layer="1631" to-port="1" />
		<edge from-layer="1631" from-port="2" to-layer="1634" to-port="0" />
		<edge from-layer="1631" from-port="2" to-layer="1645" to-port="1" />
		<edge from-layer="1632" from-port="0" to-layer="1633" to-port="0" />
		<edge from-layer="1633" from-port="1" to-layer="1634" to-port="1" />
		<edge from-layer="1634" from-port="2" to-layer="1637" to-port="0" />
		<edge from-layer="1635" from-port="0" to-layer="1636" to-port="0" />
		<edge from-layer="1636" from-port="1" to-layer="1637" to-port="1" />
		<edge from-layer="1637" from-port="2" to-layer="1638" to-port="0" />
		<edge from-layer="1638" from-port="1" to-layer="1641" to-port="0" />
		<edge from-layer="1639" from-port="0" to-layer="1640" to-port="0" />
		<edge from-layer="1640" from-port="1" to-layer="1641" to-port="1" />
		<edge from-layer="1641" from-port="2" to-layer="1644" to-port="0" />
		<edge from-layer="1642" from-port="0" to-layer="1643" to-port="0" />
		<edge from-layer="1643" from-port="1" to-layer="1644" to-port="1" />
		<edge from-layer="1644" from-port="2" to-layer="1645" to-port="0" />
		<edge from-layer="1645" from-port="2" to-layer="1647" to-port="0" />
		<edge from-layer="1646" from-port="0" to-layer="1647" to-port="1" />
		<edge from-layer="1647" from-port="2" to-layer="1650" to-port="0" />
		<edge from-layer="1648" from-port="0" to-layer="1649" to-port="0" />
		<edge from-layer="1649" from-port="1" to-layer="1650" to-port="1" />
		<edge from-layer="1650" from-port="2" to-layer="1653" to-port="0" />
		<edge from-layer="1651" from-port="0" to-layer="1652" to-port="0" />
		<edge from-layer="1652" from-port="1" to-layer="1653" to-port="1" />
		<edge from-layer="1653" from-port="2" to-layer="1656" to-port="0" />
		<edge from-layer="1653" from-port="2" to-layer="1712" to-port="1" />
		<edge from-layer="1653" from-port="2" to-layer="1693" to-port="0" />
		<edge from-layer="1653" from-port="2" to-layer="1666" to-port="0" />
		<edge from-layer="1654" from-port="0" to-layer="1655" to-port="0" />
		<edge from-layer="1655" from-port="1" to-layer="1656" to-port="1" />
		<edge from-layer="1656" from-port="2" to-layer="1659" to-port="0" />
		<edge from-layer="1657" from-port="0" to-layer="1658" to-port="0" />
		<edge from-layer="1658" from-port="1" to-layer="1659" to-port="1" />
		<edge from-layer="1659" from-port="2" to-layer="1661" to-port="0" />
		<edge from-layer="1660" from-port="0" to-layer="1661" to-port="1" />
		<edge from-layer="1661" from-port="2" to-layer="1663" to-port="0" />
		<edge from-layer="1662" from-port="0" to-layer="1663" to-port="1" />
		<edge from-layer="1663" from-port="2" to-layer="1677" to-port="0" />
		<edge from-layer="1664" from-port="0" to-layer="1665" to-port="0" />
		<edge from-layer="1665" from-port="1" to-layer="1666" to-port="1" />
		<edge from-layer="1666" from-port="2" to-layer="1669" to-port="0" />
		<edge from-layer="1667" from-port="0" to-layer="1668" to-port="0" />
		<edge from-layer="1668" from-port="1" to-layer="1669" to-port="1" />
		<edge from-layer="1669" from-port="2" to-layer="1671" to-port="0" />
		<edge from-layer="1670" from-port="0" to-layer="1671" to-port="1" />
		<edge from-layer="1671" from-port="2" to-layer="1673" to-port="0" />
		<edge from-layer="1672" from-port="0" to-layer="1673" to-port="1" />
		<edge from-layer="1673" from-port="2" to-layer="1676" to-port="0" />
		<edge from-layer="1674" from-port="0" to-layer="1675" to-port="0" />
		<edge from-layer="1675" from-port="1" to-layer="1676" to-port="1" />
		<edge from-layer="1676" from-port="2" to-layer="1677" to-port="1" />
		<edge from-layer="1677" from-port="2" to-layer="1678" to-port="0" />
		<edge from-layer="1678" from-port="2" to-layer="1688" to-port="0" />
		<edge from-layer="1678" from-port="2" to-layer="1679" to-port="0" />
		<edge from-layer="1679" from-port="1" to-layer="1690" to-port="1" />
		<edge from-layer="1679" from-port="1" to-layer="1683" to-port="0" />
		<edge from-layer="1680" from-port="0" to-layer="1683" to-port="1" />
		<edge from-layer="1681" from-port="0" to-layer="1683" to-port="2" />
		<edge from-layer="1682" from-port="0" to-layer="1683" to-port="3" />
		<edge from-layer="1683" from-port="4" to-layer="1685" to-port="0" />
		<edge from-layer="1684" from-port="0" to-layer="1685" to-port="1" />
		<edge from-layer="1685" from-port="2" to-layer="1687" to-port="0" />
		<edge from-layer="1686" from-port="0" to-layer="1687" to-port="1" />
		<edge from-layer="1687" from-port="2" to-layer="1688" to-port="1" />
		<edge from-layer="1688" from-port="2" to-layer="1689" to-port="0" />
		<edge from-layer="1689" from-port="1" to-layer="1690" to-port="0" />
		<edge from-layer="1690" from-port="2" to-layer="1701" to-port="0" />
		<edge from-layer="1691" from-port="0" to-layer="1692" to-port="0" />
		<edge from-layer="1692" from-port="1" to-layer="1693" to-port="1" />
		<edge from-layer="1693" from-port="2" to-layer="1696" to-port="0" />
		<edge from-layer="1694" from-port="0" to-layer="1695" to-port="0" />
		<edge from-layer="1695" from-port="1" to-layer="1696" to-port="1" />
		<edge from-layer="1696" from-port="2" to-layer="1698" to-port="0" />
		<edge from-layer="1697" from-port="0" to-layer="1698" to-port="1" />
		<edge from-layer="1698" from-port="2" to-layer="1700" to-port="0" />
		<edge from-layer="1699" from-port="0" to-layer="1700" to-port="1" />
		<edge from-layer="1700" from-port="2" to-layer="1701" to-port="1" />
		<edge from-layer="1701" from-port="2" to-layer="1703" to-port="0" />
		<edge from-layer="1702" from-port="0" to-layer="1703" to-port="1" />
		<edge from-layer="1703" from-port="2" to-layer="1705" to-port="0" />
		<edge from-layer="1704" from-port="0" to-layer="1705" to-port="1" />
		<edge from-layer="1705" from-port="2" to-layer="1708" to-port="0" />
		<edge from-layer="1706" from-port="0" to-layer="1707" to-port="0" />
		<edge from-layer="1707" from-port="1" to-layer="1708" to-port="1" />
		<edge from-layer="1708" from-port="2" to-layer="1711" to-port="0" />
		<edge from-layer="1709" from-port="0" to-layer="1710" to-port="0" />
		<edge from-layer="1710" from-port="1" to-layer="1711" to-port="1" />
		<edge from-layer="1711" from-port="2" to-layer="1712" to-port="0" />
		<edge from-layer="1712" from-port="2" to-layer="1714" to-port="0" />
		<edge from-layer="1713" from-port="0" to-layer="1714" to-port="1" />
		<edge from-layer="1714" from-port="2" to-layer="1717" to-port="0" />
		<edge from-layer="1715" from-port="0" to-layer="1716" to-port="0" />
		<edge from-layer="1716" from-port="1" to-layer="1717" to-port="1" />
		<edge from-layer="1717" from-port="2" to-layer="1720" to-port="0" />
		<edge from-layer="1718" from-port="0" to-layer="1719" to-port="0" />
		<edge from-layer="1719" from-port="1" to-layer="1720" to-port="1" />
		<edge from-layer="1720" from-port="2" to-layer="1734" to-port="1" />
		<edge from-layer="1720" from-port="2" to-layer="1723" to-port="0" />
		<edge from-layer="1721" from-port="0" to-layer="1722" to-port="0" />
		<edge from-layer="1722" from-port="1" to-layer="1723" to-port="1" />
		<edge from-layer="1723" from-port="2" to-layer="1726" to-port="0" />
		<edge from-layer="1724" from-port="0" to-layer="1725" to-port="0" />
		<edge from-layer="1725" from-port="1" to-layer="1726" to-port="1" />
		<edge from-layer="1726" from-port="2" to-layer="1727" to-port="0" />
		<edge from-layer="1727" from-port="1" to-layer="1730" to-port="0" />
		<edge from-layer="1728" from-port="0" to-layer="1729" to-port="0" />
		<edge from-layer="1729" from-port="1" to-layer="1730" to-port="1" />
		<edge from-layer="1730" from-port="2" to-layer="1733" to-port="0" />
		<edge from-layer="1731" from-port="0" to-layer="1732" to-port="0" />
		<edge from-layer="1732" from-port="1" to-layer="1733" to-port="1" />
		<edge from-layer="1733" from-port="2" to-layer="1734" to-port="0" />
		<edge from-layer="1734" from-port="2" to-layer="1736" to-port="0" />
		<edge from-layer="1735" from-port="0" to-layer="1736" to-port="1" />
		<edge from-layer="1736" from-port="2" to-layer="1739" to-port="0" />
		<edge from-layer="1737" from-port="0" to-layer="1738" to-port="0" />
		<edge from-layer="1738" from-port="1" to-layer="1739" to-port="1" />
		<edge from-layer="1739" from-port="2" to-layer="1742" to-port="0" />
		<edge from-layer="1740" from-port="0" to-layer="1741" to-port="0" />
		<edge from-layer="1741" from-port="1" to-layer="1742" to-port="1" />
		<edge from-layer="1742" from-port="2" to-layer="1801" to-port="1" />
		<edge from-layer="1742" from-port="2" to-layer="1782" to-port="0" />
		<edge from-layer="1742" from-port="2" to-layer="1755" to-port="0" />
		<edge from-layer="1742" from-port="2" to-layer="1745" to-port="0" />
		<edge from-layer="1743" from-port="0" to-layer="1744" to-port="0" />
		<edge from-layer="1744" from-port="1" to-layer="1745" to-port="1" />
		<edge from-layer="1745" from-port="2" to-layer="1748" to-port="0" />
		<edge from-layer="1746" from-port="0" to-layer="1747" to-port="0" />
		<edge from-layer="1747" from-port="1" to-layer="1748" to-port="1" />
		<edge from-layer="1748" from-port="2" to-layer="1750" to-port="0" />
		<edge from-layer="1749" from-port="0" to-layer="1750" to-port="1" />
		<edge from-layer="1750" from-port="2" to-layer="1752" to-port="0" />
		<edge from-layer="1751" from-port="0" to-layer="1752" to-port="1" />
		<edge from-layer="1752" from-port="2" to-layer="1766" to-port="0" />
		<edge from-layer="1753" from-port="0" to-layer="1754" to-port="0" />
		<edge from-layer="1754" from-port="1" to-layer="1755" to-port="1" />
		<edge from-layer="1755" from-port="2" to-layer="1758" to-port="0" />
		<edge from-layer="1756" from-port="0" to-layer="1757" to-port="0" />
		<edge from-layer="1757" from-port="1" to-layer="1758" to-port="1" />
		<edge from-layer="1758" from-port="2" to-layer="1760" to-port="0" />
		<edge from-layer="1759" from-port="0" to-layer="1760" to-port="1" />
		<edge from-layer="1760" from-port="2" to-layer="1762" to-port="0" />
		<edge from-layer="1761" from-port="0" to-layer="1762" to-port="1" />
		<edge from-layer="1762" from-port="2" to-layer="1765" to-port="0" />
		<edge from-layer="1763" from-port="0" to-layer="1764" to-port="0" />
		<edge from-layer="1764" from-port="1" to-layer="1765" to-port="1" />
		<edge from-layer="1765" from-port="2" to-layer="1766" to-port="1" />
		<edge from-layer="1766" from-port="2" to-layer="1767" to-port="0" />
		<edge from-layer="1767" from-port="2" to-layer="1768" to-port="0" />
		<edge from-layer="1767" from-port="2" to-layer="1777" to-port="0" />
		<edge from-layer="1768" from-port="1" to-layer="1772" to-port="0" />
		<edge from-layer="1768" from-port="1" to-layer="1779" to-port="1" />
		<edge from-layer="1769" from-port="0" to-layer="1772" to-port="1" />
		<edge from-layer="1770" from-port="0" to-layer="1772" to-port="2" />
		<edge from-layer="1771" from-port="0" to-layer="1772" to-port="3" />
		<edge from-layer="1772" from-port="4" to-layer="1774" to-port="0" />
		<edge from-layer="1773" from-port="0" to-layer="1774" to-port="1" />
		<edge from-layer="1774" from-port="2" to-layer="1776" to-port="0" />
		<edge from-layer="1775" from-port="0" to-layer="1776" to-port="1" />
		<edge from-layer="1776" from-port="2" to-layer="1777" to-port="1" />
		<edge from-layer="1777" from-port="2" to-layer="1778" to-port="0" />
		<edge from-layer="1778" from-port="1" to-layer="1779" to-port="0" />
		<edge from-layer="1779" from-port="2" to-layer="1790" to-port="0" />
		<edge from-layer="1780" from-port="0" to-layer="1781" to-port="0" />
		<edge from-layer="1781" from-port="1" to-layer="1782" to-port="1" />
		<edge from-layer="1782" from-port="2" to-layer="1785" to-port="0" />
		<edge from-layer="1783" from-port="0" to-layer="1784" to-port="0" />
		<edge from-layer="1784" from-port="1" to-layer="1785" to-port="1" />
		<edge from-layer="1785" from-port="2" to-layer="1787" to-port="0" />
		<edge from-layer="1786" from-port="0" to-layer="1787" to-port="1" />
		<edge from-layer="1787" from-port="2" to-layer="1789" to-port="0" />
		<edge from-layer="1788" from-port="0" to-layer="1789" to-port="1" />
		<edge from-layer="1789" from-port="2" to-layer="1790" to-port="1" />
		<edge from-layer="1790" from-port="2" to-layer="1792" to-port="0" />
		<edge from-layer="1791" from-port="0" to-layer="1792" to-port="1" />
		<edge from-layer="1792" from-port="2" to-layer="1794" to-port="0" />
		<edge from-layer="1793" from-port="0" to-layer="1794" to-port="1" />
		<edge from-layer="1794" from-port="2" to-layer="1797" to-port="0" />
		<edge from-layer="1795" from-port="0" to-layer="1796" to-port="0" />
		<edge from-layer="1796" from-port="1" to-layer="1797" to-port="1" />
		<edge from-layer="1797" from-port="2" to-layer="1800" to-port="0" />
		<edge from-layer="1798" from-port="0" to-layer="1799" to-port="0" />
		<edge from-layer="1799" from-port="1" to-layer="1800" to-port="1" />
		<edge from-layer="1800" from-port="2" to-layer="1801" to-port="0" />
		<edge from-layer="1801" from-port="2" to-layer="1803" to-port="0" />
		<edge from-layer="1802" from-port="0" to-layer="1803" to-port="1" />
		<edge from-layer="1803" from-port="2" to-layer="1806" to-port="0" />
		<edge from-layer="1804" from-port="0" to-layer="1805" to-port="0" />
		<edge from-layer="1805" from-port="1" to-layer="1806" to-port="1" />
		<edge from-layer="1806" from-port="2" to-layer="1809" to-port="0" />
		<edge from-layer="1807" from-port="0" to-layer="1808" to-port="0" />
		<edge from-layer="1808" from-port="1" to-layer="1809" to-port="1" />
		<edge from-layer="1809" from-port="2" to-layer="1823" to-port="1" />
		<edge from-layer="1809" from-port="2" to-layer="1812" to-port="0" />
		<edge from-layer="1810" from-port="0" to-layer="1811" to-port="0" />
		<edge from-layer="1811" from-port="1" to-layer="1812" to-port="1" />
		<edge from-layer="1812" from-port="2" to-layer="1815" to-port="0" />
		<edge from-layer="1813" from-port="0" to-layer="1814" to-port="0" />
		<edge from-layer="1814" from-port="1" to-layer="1815" to-port="1" />
		<edge from-layer="1815" from-port="2" to-layer="1816" to-port="0" />
		<edge from-layer="1816" from-port="1" to-layer="1819" to-port="0" />
		<edge from-layer="1817" from-port="0" to-layer="1818" to-port="0" />
		<edge from-layer="1818" from-port="1" to-layer="1819" to-port="1" />
		<edge from-layer="1819" from-port="2" to-layer="1822" to-port="0" />
		<edge from-layer="1820" from-port="0" to-layer="1821" to-port="0" />
		<edge from-layer="1821" from-port="1" to-layer="1822" to-port="1" />
		<edge from-layer="1822" from-port="2" to-layer="1823" to-port="0" />
		<edge from-layer="1823" from-port="2" to-layer="1825" to-port="0" />
		<edge from-layer="1824" from-port="0" to-layer="1825" to-port="1" />
		<edge from-layer="1825" from-port="2" to-layer="1828" to-port="0" />
		<edge from-layer="1826" from-port="0" to-layer="1827" to-port="0" />
		<edge from-layer="1827" from-port="1" to-layer="1828" to-port="1" />
		<edge from-layer="1828" from-port="2" to-layer="1831" to-port="0" />
		<edge from-layer="1829" from-port="0" to-layer="1830" to-port="0" />
		<edge from-layer="1830" from-port="1" to-layer="1831" to-port="1" />
		<edge from-layer="1831" from-port="2" to-layer="1834" to-port="0" />
		<edge from-layer="1831" from-port="2" to-layer="1871" to-port="0" />
		<edge from-layer="1831" from-port="2" to-layer="1890" to-port="1" />
		<edge from-layer="1831" from-port="2" to-layer="1844" to-port="0" />
		<edge from-layer="1832" from-port="0" to-layer="1833" to-port="0" />
		<edge from-layer="1833" from-port="1" to-layer="1834" to-port="1" />
		<edge from-layer="1834" from-port="2" to-layer="1837" to-port="0" />
		<edge from-layer="1835" from-port="0" to-layer="1836" to-port="0" />
		<edge from-layer="1836" from-port="1" to-layer="1837" to-port="1" />
		<edge from-layer="1837" from-port="2" to-layer="1839" to-port="0" />
		<edge from-layer="1838" from-port="0" to-layer="1839" to-port="1" />
		<edge from-layer="1839" from-port="2" to-layer="1841" to-port="0" />
		<edge from-layer="1840" from-port="0" to-layer="1841" to-port="1" />
		<edge from-layer="1841" from-port="2" to-layer="1855" to-port="0" />
		<edge from-layer="1842" from-port="0" to-layer="1843" to-port="0" />
		<edge from-layer="1843" from-port="1" to-layer="1844" to-port="1" />
		<edge from-layer="1844" from-port="2" to-layer="1847" to-port="0" />
		<edge from-layer="1845" from-port="0" to-layer="1846" to-port="0" />
		<edge from-layer="1846" from-port="1" to-layer="1847" to-port="1" />
		<edge from-layer="1847" from-port="2" to-layer="1849" to-port="0" />
		<edge from-layer="1848" from-port="0" to-layer="1849" to-port="1" />
		<edge from-layer="1849" from-port="2" to-layer="1851" to-port="0" />
		<edge from-layer="1850" from-port="0" to-layer="1851" to-port="1" />
		<edge from-layer="1851" from-port="2" to-layer="1854" to-port="0" />
		<edge from-layer="1852" from-port="0" to-layer="1853" to-port="0" />
		<edge from-layer="1853" from-port="1" to-layer="1854" to-port="1" />
		<edge from-layer="1854" from-port="2" to-layer="1855" to-port="1" />
		<edge from-layer="1855" from-port="2" to-layer="1856" to-port="0" />
		<edge from-layer="1856" from-port="2" to-layer="1857" to-port="0" />
		<edge from-layer="1856" from-port="2" to-layer="1866" to-port="0" />
		<edge from-layer="1857" from-port="1" to-layer="1861" to-port="0" />
		<edge from-layer="1857" from-port="1" to-layer="1868" to-port="1" />
		<edge from-layer="1858" from-port="0" to-layer="1861" to-port="1" />
		<edge from-layer="1859" from-port="0" to-layer="1861" to-port="2" />
		<edge from-layer="1860" from-port="0" to-layer="1861" to-port="3" />
		<edge from-layer="1861" from-port="4" to-layer="1863" to-port="0" />
		<edge from-layer="1862" from-port="0" to-layer="1863" to-port="1" />
		<edge from-layer="1863" from-port="2" to-layer="1865" to-port="0" />
		<edge from-layer="1864" from-port="0" to-layer="1865" to-port="1" />
		<edge from-layer="1865" from-port="2" to-layer="1866" to-port="1" />
		<edge from-layer="1866" from-port="2" to-layer="1867" to-port="0" />
		<edge from-layer="1867" from-port="1" to-layer="1868" to-port="0" />
		<edge from-layer="1868" from-port="2" to-layer="1879" to-port="0" />
		<edge from-layer="1869" from-port="0" to-layer="1870" to-port="0" />
		<edge from-layer="1870" from-port="1" to-layer="1871" to-port="1" />
		<edge from-layer="1871" from-port="2" to-layer="1874" to-port="0" />
		<edge from-layer="1872" from-port="0" to-layer="1873" to-port="0" />
		<edge from-layer="1873" from-port="1" to-layer="1874" to-port="1" />
		<edge from-layer="1874" from-port="2" to-layer="1876" to-port="0" />
		<edge from-layer="1875" from-port="0" to-layer="1876" to-port="1" />
		<edge from-layer="1876" from-port="2" to-layer="1878" to-port="0" />
		<edge from-layer="1877" from-port="0" to-layer="1878" to-port="1" />
		<edge from-layer="1878" from-port="2" to-layer="1879" to-port="1" />
		<edge from-layer="1879" from-port="2" to-layer="1881" to-port="0" />
		<edge from-layer="1880" from-port="0" to-layer="1881" to-port="1" />
		<edge from-layer="1881" from-port="2" to-layer="1883" to-port="0" />
		<edge from-layer="1882" from-port="0" to-layer="1883" to-port="1" />
		<edge from-layer="1883" from-port="2" to-layer="1886" to-port="0" />
		<edge from-layer="1884" from-port="0" to-layer="1885" to-port="0" />
		<edge from-layer="1885" from-port="1" to-layer="1886" to-port="1" />
		<edge from-layer="1886" from-port="2" to-layer="1889" to-port="0" />
		<edge from-layer="1887" from-port="0" to-layer="1888" to-port="0" />
		<edge from-layer="1888" from-port="1" to-layer="1889" to-port="1" />
		<edge from-layer="1889" from-port="2" to-layer="1890" to-port="0" />
		<edge from-layer="1890" from-port="2" to-layer="1892" to-port="0" />
		<edge from-layer="1891" from-port="0" to-layer="1892" to-port="1" />
		<edge from-layer="1892" from-port="2" to-layer="1895" to-port="0" />
		<edge from-layer="1893" from-port="0" to-layer="1894" to-port="0" />
		<edge from-layer="1894" from-port="1" to-layer="1895" to-port="1" />
		<edge from-layer="1895" from-port="2" to-layer="1898" to-port="0" />
		<edge from-layer="1896" from-port="0" to-layer="1897" to-port="0" />
		<edge from-layer="1897" from-port="1" to-layer="1898" to-port="1" />
		<edge from-layer="1898" from-port="2" to-layer="1901" to-port="0" />
		<edge from-layer="1898" from-port="2" to-layer="1912" to-port="1" />
		<edge from-layer="1899" from-port="0" to-layer="1900" to-port="0" />
		<edge from-layer="1900" from-port="1" to-layer="1901" to-port="1" />
		<edge from-layer="1901" from-port="2" to-layer="1904" to-port="0" />
		<edge from-layer="1902" from-port="0" to-layer="1903" to-port="0" />
		<edge from-layer="1903" from-port="1" to-layer="1904" to-port="1" />
		<edge from-layer="1904" from-port="2" to-layer="1905" to-port="0" />
		<edge from-layer="1905" from-port="1" to-layer="1908" to-port="0" />
		<edge from-layer="1906" from-port="0" to-layer="1907" to-port="0" />
		<edge from-layer="1907" from-port="1" to-layer="1908" to-port="1" />
		<edge from-layer="1908" from-port="2" to-layer="1911" to-port="0" />
		<edge from-layer="1909" from-port="0" to-layer="1910" to-port="0" />
		<edge from-layer="1910" from-port="1" to-layer="1911" to-port="1" />
		<edge from-layer="1911" from-port="2" to-layer="1912" to-port="0" />
		<edge from-layer="1912" from-port="2" to-layer="1914" to-port="0" />
		<edge from-layer="1913" from-port="0" to-layer="1914" to-port="1" />
		<edge from-layer="1914" from-port="2" to-layer="1917" to-port="0" />
		<edge from-layer="1915" from-port="0" to-layer="1916" to-port="0" />
		<edge from-layer="1916" from-port="1" to-layer="1917" to-port="1" />
		<edge from-layer="1917" from-port="2" to-layer="1920" to-port="0" />
		<edge from-layer="1918" from-port="0" to-layer="1919" to-port="0" />
		<edge from-layer="1919" from-port="1" to-layer="1920" to-port="1" />
		<edge from-layer="1920" from-port="2" to-layer="1960" to-port="0" />
		<edge from-layer="1920" from-port="2" to-layer="1979" to-port="1" />
		<edge from-layer="1920" from-port="2" to-layer="1923" to-port="0" />
		<edge from-layer="1920" from-port="2" to-layer="1933" to-port="0" />
		<edge from-layer="1921" from-port="0" to-layer="1922" to-port="0" />
		<edge from-layer="1922" from-port="1" to-layer="1923" to-port="1" />
		<edge from-layer="1923" from-port="2" to-layer="1926" to-port="0" />
		<edge from-layer="1924" from-port="0" to-layer="1925" to-port="0" />
		<edge from-layer="1925" from-port="1" to-layer="1926" to-port="1" />
		<edge from-layer="1926" from-port="2" to-layer="1928" to-port="0" />
		<edge from-layer="1927" from-port="0" to-layer="1928" to-port="1" />
		<edge from-layer="1928" from-port="2" to-layer="1930" to-port="0" />
		<edge from-layer="1929" from-port="0" to-layer="1930" to-port="1" />
		<edge from-layer="1930" from-port="2" to-layer="1944" to-port="0" />
		<edge from-layer="1931" from-port="0" to-layer="1932" to-port="0" />
		<edge from-layer="1932" from-port="1" to-layer="1933" to-port="1" />
		<edge from-layer="1933" from-port="2" to-layer="1936" to-port="0" />
		<edge from-layer="1934" from-port="0" to-layer="1935" to-port="0" />
		<edge from-layer="1935" from-port="1" to-layer="1936" to-port="1" />
		<edge from-layer="1936" from-port="2" to-layer="1938" to-port="0" />
		<edge from-layer="1937" from-port="0" to-layer="1938" to-port="1" />
		<edge from-layer="1938" from-port="2" to-layer="1940" to-port="0" />
		<edge from-layer="1939" from-port="0" to-layer="1940" to-port="1" />
		<edge from-layer="1940" from-port="2" to-layer="1943" to-port="0" />
		<edge from-layer="1941" from-port="0" to-layer="1942" to-port="0" />
		<edge from-layer="1942" from-port="1" to-layer="1943" to-port="1" />
		<edge from-layer="1943" from-port="2" to-layer="1944" to-port="1" />
		<edge from-layer="1944" from-port="2" to-layer="1945" to-port="0" />
		<edge from-layer="1945" from-port="2" to-layer="1946" to-port="0" />
		<edge from-layer="1945" from-port="2" to-layer="1955" to-port="0" />
		<edge from-layer="1946" from-port="1" to-layer="1950" to-port="0" />
		<edge from-layer="1946" from-port="1" to-layer="1957" to-port="1" />
		<edge from-layer="1947" from-port="0" to-layer="1950" to-port="1" />
		<edge from-layer="1948" from-port="0" to-layer="1950" to-port="2" />
		<edge from-layer="1949" from-port="0" to-layer="1950" to-port="3" />
		<edge from-layer="1950" from-port="4" to-layer="1952" to-port="0" />
		<edge from-layer="1951" from-port="0" to-layer="1952" to-port="1" />
		<edge from-layer="1952" from-port="2" to-layer="1954" to-port="0" />
		<edge from-layer="1953" from-port="0" to-layer="1954" to-port="1" />
		<edge from-layer="1954" from-port="2" to-layer="1955" to-port="1" />
		<edge from-layer="1955" from-port="2" to-layer="1956" to-port="0" />
		<edge from-layer="1956" from-port="1" to-layer="1957" to-port="0" />
		<edge from-layer="1957" from-port="2" to-layer="1968" to-port="0" />
		<edge from-layer="1958" from-port="0" to-layer="1959" to-port="0" />
		<edge from-layer="1959" from-port="1" to-layer="1960" to-port="1" />
		<edge from-layer="1960" from-port="2" to-layer="1963" to-port="0" />
		<edge from-layer="1961" from-port="0" to-layer="1962" to-port="0" />
		<edge from-layer="1962" from-port="1" to-layer="1963" to-port="1" />
		<edge from-layer="1963" from-port="2" to-layer="1965" to-port="0" />
		<edge from-layer="1964" from-port="0" to-layer="1965" to-port="1" />
		<edge from-layer="1965" from-port="2" to-layer="1967" to-port="0" />
		<edge from-layer="1966" from-port="0" to-layer="1967" to-port="1" />
		<edge from-layer="1967" from-port="2" to-layer="1968" to-port="1" />
		<edge from-layer="1968" from-port="2" to-layer="1970" to-port="0" />
		<edge from-layer="1969" from-port="0" to-layer="1970" to-port="1" />
		<edge from-layer="1970" from-port="2" to-layer="1972" to-port="0" />
		<edge from-layer="1971" from-port="0" to-layer="1972" to-port="1" />
		<edge from-layer="1972" from-port="2" to-layer="1975" to-port="0" />
		<edge from-layer="1973" from-port="0" to-layer="1974" to-port="0" />
		<edge from-layer="1974" from-port="1" to-layer="1975" to-port="1" />
		<edge from-layer="1975" from-port="2" to-layer="1978" to-port="0" />
		<edge from-layer="1976" from-port="0" to-layer="1977" to-port="0" />
		<edge from-layer="1977" from-port="1" to-layer="1978" to-port="1" />
		<edge from-layer="1978" from-port="2" to-layer="1979" to-port="0" />
		<edge from-layer="1979" from-port="2" to-layer="1981" to-port="0" />
		<edge from-layer="1980" from-port="0" to-layer="1981" to-port="1" />
		<edge from-layer="1981" from-port="2" to-layer="1984" to-port="0" />
		<edge from-layer="1982" from-port="0" to-layer="1983" to-port="0" />
		<edge from-layer="1983" from-port="1" to-layer="1984" to-port="1" />
		<edge from-layer="1984" from-port="2" to-layer="1987" to-port="0" />
		<edge from-layer="1985" from-port="0" to-layer="1986" to-port="0" />
		<edge from-layer="1986" from-port="1" to-layer="1987" to-port="1" />
		<edge from-layer="1987" from-port="2" to-layer="2001" to-port="1" />
		<edge from-layer="1987" from-port="2" to-layer="1990" to-port="0" />
		<edge from-layer="1988" from-port="0" to-layer="1989" to-port="0" />
		<edge from-layer="1989" from-port="1" to-layer="1990" to-port="1" />
		<edge from-layer="1990" from-port="2" to-layer="1993" to-port="0" />
		<edge from-layer="1991" from-port="0" to-layer="1992" to-port="0" />
		<edge from-layer="1992" from-port="1" to-layer="1993" to-port="1" />
		<edge from-layer="1993" from-port="2" to-layer="1994" to-port="0" />
		<edge from-layer="1994" from-port="1" to-layer="1997" to-port="0" />
		<edge from-layer="1995" from-port="0" to-layer="1996" to-port="0" />
		<edge from-layer="1996" from-port="1" to-layer="1997" to-port="1" />
		<edge from-layer="1997" from-port="2" to-layer="2000" to-port="0" />
		<edge from-layer="1998" from-port="0" to-layer="1999" to-port="0" />
		<edge from-layer="1999" from-port="1" to-layer="2000" to-port="1" />
		<edge from-layer="2000" from-port="2" to-layer="2001" to-port="0" />
		<edge from-layer="2001" from-port="2" to-layer="2003" to-port="0" />
		<edge from-layer="2002" from-port="0" to-layer="2003" to-port="1" />
		<edge from-layer="2003" from-port="2" to-layer="2006" to-port="0" />
		<edge from-layer="2004" from-port="0" to-layer="2005" to-port="0" />
		<edge from-layer="2005" from-port="1" to-layer="2006" to-port="1" />
		<edge from-layer="2006" from-port="2" to-layer="2009" to-port="0" />
		<edge from-layer="2007" from-port="0" to-layer="2008" to-port="0" />
		<edge from-layer="2008" from-port="1" to-layer="2009" to-port="1" />
		<edge from-layer="2009" from-port="2" to-layer="2012" to-port="0" />
		<edge from-layer="2009" from-port="2" to-layer="2068" to-port="1" />
		<edge from-layer="2009" from-port="2" to-layer="2049" to-port="0" />
		<edge from-layer="2009" from-port="2" to-layer="2022" to-port="0" />
		<edge from-layer="2010" from-port="0" to-layer="2011" to-port="0" />
		<edge from-layer="2011" from-port="1" to-layer="2012" to-port="1" />
		<edge from-layer="2012" from-port="2" to-layer="2015" to-port="0" />
		<edge from-layer="2013" from-port="0" to-layer="2014" to-port="0" />
		<edge from-layer="2014" from-port="1" to-layer="2015" to-port="1" />
		<edge from-layer="2015" from-port="2" to-layer="2017" to-port="0" />
		<edge from-layer="2016" from-port="0" to-layer="2017" to-port="1" />
		<edge from-layer="2017" from-port="2" to-layer="2019" to-port="0" />
		<edge from-layer="2018" from-port="0" to-layer="2019" to-port="1" />
		<edge from-layer="2019" from-port="2" to-layer="2033" to-port="0" />
		<edge from-layer="2020" from-port="0" to-layer="2021" to-port="0" />
		<edge from-layer="2021" from-port="1" to-layer="2022" to-port="1" />
		<edge from-layer="2022" from-port="2" to-layer="2025" to-port="0" />
		<edge from-layer="2023" from-port="0" to-layer="2024" to-port="0" />
		<edge from-layer="2024" from-port="1" to-layer="2025" to-port="1" />
		<edge from-layer="2025" from-port="2" to-layer="2027" to-port="0" />
		<edge from-layer="2026" from-port="0" to-layer="2027" to-port="1" />
		<edge from-layer="2027" from-port="2" to-layer="2029" to-port="0" />
		<edge from-layer="2028" from-port="0" to-layer="2029" to-port="1" />
		<edge from-layer="2029" from-port="2" to-layer="2032" to-port="0" />
		<edge from-layer="2030" from-port="0" to-layer="2031" to-port="0" />
		<edge from-layer="2031" from-port="1" to-layer="2032" to-port="1" />
		<edge from-layer="2032" from-port="2" to-layer="2033" to-port="1" />
		<edge from-layer="2033" from-port="2" to-layer="2034" to-port="0" />
		<edge from-layer="2034" from-port="2" to-layer="2035" to-port="0" />
		<edge from-layer="2034" from-port="2" to-layer="2044" to-port="0" />
		<edge from-layer="2035" from-port="1" to-layer="2039" to-port="0" />
		<edge from-layer="2035" from-port="1" to-layer="2046" to-port="1" />
		<edge from-layer="2036" from-port="0" to-layer="2039" to-port="1" />
		<edge from-layer="2037" from-port="0" to-layer="2039" to-port="2" />
		<edge from-layer="2038" from-port="0" to-layer="2039" to-port="3" />
		<edge from-layer="2039" from-port="4" to-layer="2041" to-port="0" />
		<edge from-layer="2040" from-port="0" to-layer="2041" to-port="1" />
		<edge from-layer="2041" from-port="2" to-layer="2043" to-port="0" />
		<edge from-layer="2042" from-port="0" to-layer="2043" to-port="1" />
		<edge from-layer="2043" from-port="2" to-layer="2044" to-port="1" />
		<edge from-layer="2044" from-port="2" to-layer="2045" to-port="0" />
		<edge from-layer="2045" from-port="1" to-layer="2046" to-port="0" />
		<edge from-layer="2046" from-port="2" to-layer="2057" to-port="0" />
		<edge from-layer="2047" from-port="0" to-layer="2048" to-port="0" />
		<edge from-layer="2048" from-port="1" to-layer="2049" to-port="1" />
		<edge from-layer="2049" from-port="2" to-layer="2052" to-port="0" />
		<edge from-layer="2050" from-port="0" to-layer="2051" to-port="0" />
		<edge from-layer="2051" from-port="1" to-layer="2052" to-port="1" />
		<edge from-layer="2052" from-port="2" to-layer="2054" to-port="0" />
		<edge from-layer="2053" from-port="0" to-layer="2054" to-port="1" />
		<edge from-layer="2054" from-port="2" to-layer="2056" to-port="0" />
		<edge from-layer="2055" from-port="0" to-layer="2056" to-port="1" />
		<edge from-layer="2056" from-port="2" to-layer="2057" to-port="1" />
		<edge from-layer="2057" from-port="2" to-layer="2059" to-port="0" />
		<edge from-layer="2058" from-port="0" to-layer="2059" to-port="1" />
		<edge from-layer="2059" from-port="2" to-layer="2061" to-port="0" />
		<edge from-layer="2060" from-port="0" to-layer="2061" to-port="1" />
		<edge from-layer="2061" from-port="2" to-layer="2064" to-port="0" />
		<edge from-layer="2062" from-port="0" to-layer="2063" to-port="0" />
		<edge from-layer="2063" from-port="1" to-layer="2064" to-port="1" />
		<edge from-layer="2064" from-port="2" to-layer="2067" to-port="0" />
		<edge from-layer="2065" from-port="0" to-layer="2066" to-port="0" />
		<edge from-layer="2066" from-port="1" to-layer="2067" to-port="1" />
		<edge from-layer="2067" from-port="2" to-layer="2068" to-port="0" />
		<edge from-layer="2068" from-port="2" to-layer="2070" to-port="0" />
		<edge from-layer="2069" from-port="0" to-layer="2070" to-port="1" />
		<edge from-layer="2070" from-port="2" to-layer="2073" to-port="0" />
		<edge from-layer="2071" from-port="0" to-layer="2072" to-port="0" />
		<edge from-layer="2072" from-port="1" to-layer="2073" to-port="1" />
		<edge from-layer="2073" from-port="2" to-layer="2076" to-port="0" />
		<edge from-layer="2074" from-port="0" to-layer="2075" to-port="0" />
		<edge from-layer="2075" from-port="1" to-layer="2076" to-port="1" />
		<edge from-layer="2076" from-port="2" to-layer="2079" to-port="0" />
		<edge from-layer="2076" from-port="2" to-layer="2090" to-port="1" />
		<edge from-layer="2077" from-port="0" to-layer="2078" to-port="0" />
		<edge from-layer="2078" from-port="1" to-layer="2079" to-port="1" />
		<edge from-layer="2079" from-port="2" to-layer="2082" to-port="0" />
		<edge from-layer="2080" from-port="0" to-layer="2081" to-port="0" />
		<edge from-layer="2081" from-port="1" to-layer="2082" to-port="1" />
		<edge from-layer="2082" from-port="2" to-layer="2083" to-port="0" />
		<edge from-layer="2083" from-port="1" to-layer="2086" to-port="0" />
		<edge from-layer="2084" from-port="0" to-layer="2085" to-port="0" />
		<edge from-layer="2085" from-port="1" to-layer="2086" to-port="1" />
		<edge from-layer="2086" from-port="2" to-layer="2089" to-port="0" />
		<edge from-layer="2087" from-port="0" to-layer="2088" to-port="0" />
		<edge from-layer="2088" from-port="1" to-layer="2089" to-port="1" />
		<edge from-layer="2089" from-port="2" to-layer="2090" to-port="0" />
		<edge from-layer="2090" from-port="2" to-layer="2092" to-port="0" />
		<edge from-layer="2091" from-port="0" to-layer="2092" to-port="1" />
		<edge from-layer="2092" from-port="2" to-layer="2095" to-port="0" />
		<edge from-layer="2093" from-port="0" to-layer="2094" to-port="0" />
		<edge from-layer="2094" from-port="1" to-layer="2095" to-port="1" />
		<edge from-layer="2095" from-port="2" to-layer="2098" to-port="0" />
		<edge from-layer="2096" from-port="0" to-layer="2097" to-port="0" />
		<edge from-layer="2097" from-port="1" to-layer="2098" to-port="1" />
		<edge from-layer="2098" from-port="2" to-layer="2101" to-port="0" />
		<edge from-layer="2098" from-port="2" to-layer="2111" to-port="0" />
		<edge from-layer="2098" from-port="2" to-layer="2138" to-port="0" />
		<edge from-layer="2098" from-port="2" to-layer="2157" to-port="1" />
		<edge from-layer="2099" from-port="0" to-layer="2100" to-port="0" />
		<edge from-layer="2100" from-port="1" to-layer="2101" to-port="1" />
		<edge from-layer="2101" from-port="2" to-layer="2104" to-port="0" />
		<edge from-layer="2102" from-port="0" to-layer="2103" to-port="0" />
		<edge from-layer="2103" from-port="1" to-layer="2104" to-port="1" />
		<edge from-layer="2104" from-port="2" to-layer="2106" to-port="0" />
		<edge from-layer="2105" from-port="0" to-layer="2106" to-port="1" />
		<edge from-layer="2106" from-port="2" to-layer="2108" to-port="0" />
		<edge from-layer="2107" from-port="0" to-layer="2108" to-port="1" />
		<edge from-layer="2108" from-port="2" to-layer="2122" to-port="0" />
		<edge from-layer="2109" from-port="0" to-layer="2110" to-port="0" />
		<edge from-layer="2110" from-port="1" to-layer="2111" to-port="1" />
		<edge from-layer="2111" from-port="2" to-layer="2114" to-port="0" />
		<edge from-layer="2112" from-port="0" to-layer="2113" to-port="0" />
		<edge from-layer="2113" from-port="1" to-layer="2114" to-port="1" />
		<edge from-layer="2114" from-port="2" to-layer="2116" to-port="0" />
		<edge from-layer="2115" from-port="0" to-layer="2116" to-port="1" />
		<edge from-layer="2116" from-port="2" to-layer="2118" to-port="0" />
		<edge from-layer="2117" from-port="0" to-layer="2118" to-port="1" />
		<edge from-layer="2118" from-port="2" to-layer="2121" to-port="0" />
		<edge from-layer="2119" from-port="0" to-layer="2120" to-port="0" />
		<edge from-layer="2120" from-port="1" to-layer="2121" to-port="1" />
		<edge from-layer="2121" from-port="2" to-layer="2122" to-port="1" />
		<edge from-layer="2122" from-port="2" to-layer="2123" to-port="0" />
		<edge from-layer="2123" from-port="2" to-layer="2124" to-port="0" />
		<edge from-layer="2123" from-port="2" to-layer="2133" to-port="0" />
		<edge from-layer="2124" from-port="1" to-layer="2128" to-port="0" />
		<edge from-layer="2124" from-port="1" to-layer="2135" to-port="1" />
		<edge from-layer="2125" from-port="0" to-layer="2128" to-port="1" />
		<edge from-layer="2126" from-port="0" to-layer="2128" to-port="2" />
		<edge from-layer="2127" from-port="0" to-layer="2128" to-port="3" />
		<edge from-layer="2128" from-port="4" to-layer="2130" to-port="0" />
		<edge from-layer="2129" from-port="0" to-layer="2130" to-port="1" />
		<edge from-layer="2130" from-port="2" to-layer="2132" to-port="0" />
		<edge from-layer="2131" from-port="0" to-layer="2132" to-port="1" />
		<edge from-layer="2132" from-port="2" to-layer="2133" to-port="1" />
		<edge from-layer="2133" from-port="2" to-layer="2134" to-port="0" />
		<edge from-layer="2134" from-port="1" to-layer="2135" to-port="0" />
		<edge from-layer="2135" from-port="2" to-layer="2146" to-port="0" />
		<edge from-layer="2136" from-port="0" to-layer="2137" to-port="0" />
		<edge from-layer="2137" from-port="1" to-layer="2138" to-port="1" />
		<edge from-layer="2138" from-port="2" to-layer="2141" to-port="0" />
		<edge from-layer="2139" from-port="0" to-layer="2140" to-port="0" />
		<edge from-layer="2140" from-port="1" to-layer="2141" to-port="1" />
		<edge from-layer="2141" from-port="2" to-layer="2143" to-port="0" />
		<edge from-layer="2142" from-port="0" to-layer="2143" to-port="1" />
		<edge from-layer="2143" from-port="2" to-layer="2145" to-port="0" />
		<edge from-layer="2144" from-port="0" to-layer="2145" to-port="1" />
		<edge from-layer="2145" from-port="2" to-layer="2146" to-port="1" />
		<edge from-layer="2146" from-port="2" to-layer="2148" to-port="0" />
		<edge from-layer="2147" from-port="0" to-layer="2148" to-port="1" />
		<edge from-layer="2148" from-port="2" to-layer="2150" to-port="0" />
		<edge from-layer="2149" from-port="0" to-layer="2150" to-port="1" />
		<edge from-layer="2150" from-port="2" to-layer="2153" to-port="0" />
		<edge from-layer="2151" from-port="0" to-layer="2152" to-port="0" />
		<edge from-layer="2152" from-port="1" to-layer="2153" to-port="1" />
		<edge from-layer="2153" from-port="2" to-layer="2156" to-port="0" />
		<edge from-layer="2154" from-port="0" to-layer="2155" to-port="0" />
		<edge from-layer="2155" from-port="1" to-layer="2156" to-port="1" />
		<edge from-layer="2156" from-port="2" to-layer="2157" to-port="0" />
		<edge from-layer="2157" from-port="2" to-layer="2159" to-port="0" />
		<edge from-layer="2158" from-port="0" to-layer="2159" to-port="1" />
		<edge from-layer="2159" from-port="2" to-layer="2162" to-port="0" />
		<edge from-layer="2160" from-port="0" to-layer="2161" to-port="0" />
		<edge from-layer="2161" from-port="1" to-layer="2162" to-port="1" />
		<edge from-layer="2162" from-port="2" to-layer="2165" to-port="0" />
		<edge from-layer="2163" from-port="0" to-layer="2164" to-port="0" />
		<edge from-layer="2164" from-port="1" to-layer="2165" to-port="1" />
		<edge from-layer="2165" from-port="2" to-layer="2168" to-port="0" />
		<edge from-layer="2165" from-port="2" to-layer="2179" to-port="1" />
		<edge from-layer="2166" from-port="0" to-layer="2167" to-port="0" />
		<edge from-layer="2167" from-port="1" to-layer="2168" to-port="1" />
		<edge from-layer="2168" from-port="2" to-layer="2171" to-port="0" />
		<edge from-layer="2169" from-port="0" to-layer="2170" to-port="0" />
		<edge from-layer="2170" from-port="1" to-layer="2171" to-port="1" />
		<edge from-layer="2171" from-port="2" to-layer="2172" to-port="0" />
		<edge from-layer="2172" from-port="1" to-layer="2175" to-port="0" />
		<edge from-layer="2173" from-port="0" to-layer="2174" to-port="0" />
		<edge from-layer="2174" from-port="1" to-layer="2175" to-port="1" />
		<edge from-layer="2175" from-port="2" to-layer="2178" to-port="0" />
		<edge from-layer="2176" from-port="0" to-layer="2177" to-port="0" />
		<edge from-layer="2177" from-port="1" to-layer="2178" to-port="1" />
		<edge from-layer="2178" from-port="2" to-layer="2179" to-port="0" />
		<edge from-layer="2179" from-port="2" to-layer="2181" to-port="0" />
		<edge from-layer="2180" from-port="0" to-layer="2181" to-port="1" />
		<edge from-layer="2181" from-port="2" to-layer="2184" to-port="0" />
		<edge from-layer="2182" from-port="0" to-layer="2183" to-port="0" />
		<edge from-layer="2183" from-port="1" to-layer="2184" to-port="1" />
		<edge from-layer="2184" from-port="2" to-layer="2187" to-port="0" />
		<edge from-layer="2185" from-port="0" to-layer="2186" to-port="0" />
		<edge from-layer="2186" from-port="1" to-layer="2187" to-port="1" />
		<edge from-layer="2187" from-port="2" to-layer="2190" to-port="0" />
		<edge from-layer="2188" from-port="0" to-layer="2189" to-port="0" />
		<edge from-layer="2189" from-port="1" to-layer="2190" to-port="1" />
		<edge from-layer="2190" from-port="2" to-layer="2193" to-port="0" />
		<edge from-layer="2191" from-port="0" to-layer="2192" to-port="0" />
		<edge from-layer="2192" from-port="1" to-layer="2193" to-port="1" />
		<edge from-layer="2193" from-port="2" to-layer="2196" to-port="0" />
		<edge from-layer="2194" from-port="0" to-layer="2196" to-port="1" />
		<edge from-layer="2195" from-port="0" to-layer="2196" to-port="2" />
		<edge from-layer="2196" from-port="4" to-layer="2198" to-port="0" />
		<edge from-layer="2196" from-port="3" to-layer="2201" to-port="0" />
		<edge from-layer="2197" from-port="0" to-layer="2198" to-port="1" />
		<edge from-layer="2198" from-port="2" to-layer="2199" to-port="0" />
		<edge from-layer="2200" from-port="0" to-layer="2201" to-port="1" />
		<edge from-layer="2201" from-port="2" to-layer="2202" to-port="0" />
	</edges>
	<rt_info>
		<MO_version value="custom_HEAD_f6ee6e92f846a8c665e4a7089c51481f9689a3b5" />
		<Runtime_version value="2023.0.0-10521-f6ee6e92f84-HEAD" />
		<conversion_parameters>
			<framework value="onnx" />
			<input value="input_ids,attention_mask,token_type_ids" />
			<input_model value="DIR/bert-large-uncased-whole-word-masking-squad-fp32-0001.onnx" />
			<input_shape value="[1,384],[1,384],[1,384]" />
			<layout value="input_ids(nc),attention_mask(nc),token_type_ids(nc)" />
			<model_name value="bert-large-uncased-whole-word-masking-squad-0001" />
			<output value="output_s,output_e" />
			<output_dir value="DIR" />
		</conversion_parameters>
		<legacy_frontend value="False" />
	</rt_info>
</net>
